mlruns/492255811164162868/5d3e38711d4c4bf28e2c2c89e4263f9c/artifacts/mnist_model_mlflow/data/model.pth (torch, 130408 bytes, 8 tensors)

weight f4 [10, 1, 5, 5]
0	0x3dfc016d	0.123049594
1	0x3d837800	0.064193726
2	0xbc9d437a	-0.019197214
3	0x3dec3165	0.11532859
4	0x3d8bd260	0.06827235
5	0xbe999049	-0.29992893
6	0xbc85c7a9	-0.016330557
7	0x3e3ce358	0.184461
8	0x3d67f7d9	0.05663285
9	0xbe83d0ec	-0.25745332
10	0xbdef6700	-0.116895676
11	0x3d5b3ab4	0.05352278
12	0xbd1c683b	-0.03818534
13	0x3e35a1dd	0.17737527
14	0xbe4fffcd	-0.20312424
15	0x3e6fe4ff	0.23427199
16	0xbccc4240	-0.024933934
17	0xbcf60c34	-0.030035116
18	0x3e7cb0a8	0.24676764
19	0x3e852929	0.26007965
20	0xbcbad217	-0.022805257
21	0xbec40a51	-0.3828912
22	0xbe5e3526	-0.21699962
23	0xbda9be5e	-0.08288263
24	0x3e73355c	0.23750824
25	0x3bbd15ab	0.0057704053
26	0x3cf2c944	0.029636987
27	0x3daac360	0.08338046
28	0xbd3ad05d	-0.045608867
29	0x3e3fff67	0.18749772
30	0x3e44a5c5	0.19203861
31	0x3ebe625b	0.37184414
32	0x3e7e958a	0.24861732
33	0x3e81e9e4	0.25373757
34	0x3e481976	0.19540963
35	0x3ec1ce17	0.37852547
36	0x3e91fd79	0.28513697
37	0x3e314be3	0.17314105
38	0x3eac4812	0.33648735
39	0x3df013d7	0.11722534
40	0x3ca0001f	0.019531308
41	0xbe5b0cbc	-0.21391577
42	0xbe29100e	-0.1651003
43	0xbe4d7d1f	-0.20067261
44	0x3c8f53ad	0.017495954
45	0xbef30af2	-0.47469288
46	0xbed6f1e9	-0.41981438
47	0xbe8e1951	-0.2775369
48	0xbed5ddc9	-0.4177077
49	0xbc99aa2b	-0.0187579
50	0xbbdcb725	-0.0067356997
51	0xbe60f7e4	-0.21969563
52	0xbd3329ec	-0.04374115
53	0x3e7d7180	0.24750328
54	0x3e5ba956	0.21451315
55	0xbda5d241	-0.080967434
56	0x3e27e9c5	0.1639777
57	0x3db24d69	0.08706171
58	0x3e48faaa	0.19626871
59	0x3e1ab721	0.1510892
60	0xbe022b62	-0.12711862
61	0x3e1fd873	0.15609913
62	0x3e03d981	0.1287594
63	0xbe562236	-0.20911488
64	0x3cd7f79f	0.026363192
65	0x3e460ea9	0.1934153
66	0x3e657390	0.22407365
67	0x3e102d85	0.14079864
68	0xbe6db18e	-0.23212263
69	0x3e38a391	0.18031146
70	0x3e4eb5fa	0.20186606
71	0x3d57c2db	0.052676063
72	0xbe7592b4	-0.23981744
73	0xbe8fbd8a	-0.28074294
74	0xbc496563	-0.012292239
75	0xbc8cb101	-0.017174246
76	0xbe629fe4	-0.22131306
77	0xbc24d44b	-0.01006038
78	0xbd5c7c2d	-0.05382936
79	0xbe91c3d8	-0.2846973
80	0x3db7f5f0	0.08982456
81	0x3e3c9e5e	0.18419787
82	0xbe2fac37	-0.17155538
83	0xbec3d3a0	-0.38247395
84	0xbecd05fa	-0.40043622
85	0x3e5865e3	0.21132617
86	0x3eb3d3d6	0.35122555
87	0xbe4e8266	-0.2016693
88	0xbe56eda4	-0.2098909
89	0xbe928d58	-0.28623462
90	0xbda611d4	-0.08108869
91	0x3e365012	0.17803982
92	0x3e2fb91e	0.1716046
93	0x3e2a6eb2	0.1664379
94	0x3e15dfaa	0.14636102
95	0x3d9ea951	0.07747138
96	0x3e9206d8	0.28520846
97	0x3e8114e0	0.2521124
98	0x3ed91373	0.4239765
99	0x3e9cbe83	0.306141
100	0xbe0ff26d	-0.14057322
101	0x3e5955bc	0.21224111
102	0x3e8d819e	0.27637953
103	0xbc7c3309	-0.015393027
104	0xbe99a722	-0.30010325
105	0xbd2aeea6	-0.0417315
106	0x3d03a8de	0.032143466
107	0x3d878850	0.066177964
108	0x3ea0cb40	0.31405067
109	0xbe54bdfe	-0.20775601
110	0xbe51c128	-0.2048384
111	0xbe245025	-0.16046198
112	0x3dd50b19	0.10402507
113	0x3ea08c71	0.31357148
114	0x3e870ed8	0.26378512
115	0xbda4c287	-0.08044916
116	0x3ce973fd	0.02849769
117	0xbbd31310	-0.0064414814
118	0x3d41bb55	0.047297794
119	0x3e384fd7	0.17999206
120	0x3e054bf9	0.13017263
121	0x3a8dafe4	0.0010809866
122	0x3dd7fe6e	0.105465755
123	0xbddbc975	-0.10731784
124	0x3e54ea6e	0.20792553
125	0x3e87c1b5	0.26514974
126	0xbdaf8852	-0.08570923
127	0x3e1328ae	0.14370987
128	0x3e085fbc	0.1331777
129	0xbd8fda9a	-0.07024117
130	0xbe7e5f5b	-0.24841063
131	0xbee42f11	-0.4456716
132	0xbeb4bf18	-0.35302043
133	0xbebf7018	-0.37390208
134	0xbe447998	-0.1918701
135	0xbdd6dac2	-0.104909435
136	0xbe6f29ee	-0.23355839
137	0xbe9ca400	-0.30593872
138	0xbe155dde	-0.14586589
139	0xbe767cbb	-0.24071018
140	0x3e040190	0.12891221
141	0xbbff515f	-0.0077916826
142	0xbd2fb493	-0.04289682
143	0xbce76846	-0.028247964
144	0xbc295450	-0.010335043
145	0x3eb90189	0.36133984
146	0x3e984f2a	0.29747897
147	0x3e0e6bc0	0.13908291
148	0x3eb470e0	0.35242367
149	0x3ea54d45	0.32285514
150	0x3e812140	0.2522068
151	0x3ec34489	0.38138226
152	0x3da2f109	0.0795613
153	0x3e792fd7	0.24334656
154	0xbd94891b	-0.07252713
155	0x3df0ab52	0.11751427
156	0x3e8f43a7	0.27981302
157	0x3e179176	0.14801583
158	0x3ecab327	0.39589807
159	0x3e19a38a	0.15003791
160	0xbeb745ca	-0.35795432
161	0xbe8574f7	-0.260658
162	0x3c2875ce	0.010281993
163	0x3e1e33fa	0.15449515
164	0x3e05ec2d	0.13078375
165	0xbeec9267	-0.46205446
166	0xbe66ea75	-0.22550376
167	0xbebde677	-0.37089893
168	0x3dc62a73	0.09676065
169	0x3e893df7	0.26805088
170	0xbe395417	-0.18098484
171	0xbcb7cf4f	-0.02243772
172	0xbe466bed	-0.19377108
173	0xbe308bb0	-0.17240787
174	0x3e6028b3	0.21890526
175	0xbe4c7247	-0.19965468
176	0xbe6efe00	-0.23339081
177	0xbea288a0	-0.31744862
178	0xbeb75e84	-0.35814297
179	0xbdc55c97	-0.09636801
180	0xbe817866	-0.2528717
181	0xbee4aaf1	-0.44661668
182	0xbdce25f2	-0.10065831
183	0xbe331718	-0.17489278
184	0x3c87c1e7	0.016571952
185	0xbda510cf	-0.080598466
186	0x3d4eff0f	0.05053621
187	0xbe117391	-0.14204241
188	0x3e0ec7ee	0.13943455
189	0x3dfc2333	0.12311401
190	0x3d9eeb07	0.07759672
191	0x3e900c6f	0.28134486
192	0x3d3edfaa	0.04660002
193	0x3e9c961d	0.30583277
194	0x3e9b583d	0.30340758
195	0x3e2409e5	0.160194
196	0x3ea99570	0.33121824
197	0x3dfc0368	0.12305337
198	0x3e7c9ef3	0.2467001
199	0xbd9433c5	-0.07236437
200	0xbda6f0f4	-0.08151427
201	0xbe899bb4	-0.26876605
202	0xbe86bb65	-0.26314846
203	0x3e433adc	0.19065422
204	0x3e699148	0.22809327
205	0xbe97d885	-0.2965738
206	0xbe8276d1	-0.25481275
207	0xbe13e93a	-0.14444438
208	0x3d9c1a21	0.07622171
209	0x3eb62a2e	0.35579056
210	0xbed0f25f	-0.40809914
211	0xbeb3601f	-0.35034272
212	0xbc5fd4eb	-0.013661603
213	0x3eafc912	0.34333092
214	0x3e66347a	0.22480956
215	0xbeadc146	-0.33936518
216	0x3dce4372	0.10071458
217	0x3e062330	0.1309936
218	0x3e249428	0.16072142
219	0x3e715c96	0.23570475
220	0x3def84ab	0.11695226
221	0xbd312ba5	-0.043254513
222	0x3dca52df	0.09879088
223	0x3e751210	0.23932672
224	0x3ea1a873	0.3157383
225	0xbe00409f	-0.12524651
226	0x3dad1408	0.08451086
227	0x3e786acd	0.24259491
228	0x3d7d9347	0.061908033
229	0xbe84964d	-0.2589592
230	0x3d058def	0.03260606
231	0x3e8a2df7	0.26988193
232	0x3e83147b	0.25601563
233	0xbe44bbe6	-0.19212303
234	0xbebe1818	-0.37127757
235	0xbc183bec	-0.00929163
236	0x3e9fa145	0.31177726
237	0x3d27ac7c	0.04093598
238	0xbe3549ee	-0.17703983
239	0xbefb2e85	-0.4905893
240	0x3ebb660e	0.366013
241	0x3e17f162	0.14838174
242	0x3aab3c05	0.0013064152
243	0xbe9b4170	-0.30323362
244	0xbefec547	-0.49759886
245	0x3e10d51c	0.14143795
246	0x3ea31811	0.318543
247	0x3e85a1fa	0.2610014
248	0xbda4a440	-0.08039141
249	0xbe45efcc	-0.19329756

bias f4 [10]
0	0x3d137442	0.035999544
1	0xbb13e574	-0.0022567185
2	0xbd3afeda	-0.0456532
3	0xbc4dee19	-0.012568974
4	0xbe046c58	-0.12931955
5	0x3e4bf89e	0.19919059
6	0xbcfdf772	-0.03100178
7	0x3d8d4f69	0.06899912
8	0xbcfea447	-0.031084193
9	0x3e16360d	0.14669056

weight f4 [20, 10, 5, 5]
0	0x3dc2d897	0.095139675
1	0x3d9fb415	0.0779802
2	0x3d9b7d75	0.075922884
3	0x3d4e15b1	0.050313655
4	0xbdb8f9c2	-0.090320125
5	0x3d1f2faa	0.038863815
6	0x3dee78d6	0.116441414
7	0xbd9bbfb5	-0.076049246
8	0x3b92deb9	0.004482117
9	0xbdf2bb0c	-0.118520826
10	0x3d5c526d	0.053789545
11	0xbc5f3a44	-0.013624731
12	0xbdf0a5d8	-0.11750382
13	0xbd910f12	-0.070829526
14	0xbd0837e3	-0.033256423
15	0xbce5a908	-0.028034702
16	0xbdf0244d	-0.11725674
17	0xbddf80a7	-0.1091321
18	0xbd36e8ad	-0.04465549
19	0xbd3d9806	-0.04628756
20	0xbccd67e3	-0.025073951
21	0xbd5097f0	-0.05092615
22	0xbb629887	-0.0034575777
23	0x3bac2a5b	0.0052540726
24	0xbcc1411d	-0.023590619
25	0xbe2c7d05	-0.16844566
26	0x3d0abcc8	0.033871442
27	0x3db864d9	0.0900361
28	0xbd32ddee	-0.04366868
29	0xbe7c2d09	-0.24626555
30	0x3d6a5137	0.05720636
31	0x3e2af9a1	0.16696788
32	0x3dc564d3	0.09638371
33	0xbe4cfc3e	-0.20018098
34	0xbde2c581	-0.11072827
35	0x3d7237ad	0.059135128
36	0x3d86e140	0.06585932
37	0xbe60cf97	-0.21954189
38	0xbe3f9791	-0.18710162
39	0xbe04c697	-0.12966381
40	0x3d821b0f	0.06352817
41	0xbe43ae02	-0.19109347
42	0xbe88e0d7	-0.2673404
43	0xbcf4104f	-0.029792933
44	0xbd8645b5	-0.06556264
45	0xbd9c947f	-0.07645511
46	0xbe3a5a5e	-0.18198535
47	0xbe424a9b	-0.18973772
48	0xbe7798ef	-0.24179433
49	0xbd0c8fc4	-0.034316793
50	0x3d8c66d3	0.0685555
51	0x3e420d35	0.1895035
52	0x3e1bce14	0.15215331
53	0xbe01d3ac	-0.12678403
54	0xbd12300c	-0.035690352
55	0x3e5f42c5	0.21802814
56	0x3e073434	0.13203508
57	0xbe32e521	-0.17470218
58	0xbe592b71	-0.21207978
59	0xbc8744b7	-0.016512258
60	0x3e6766fb	0.22597878
61	0xbe3708d5	-0.17874463
62	0xbe25c942	-0.16190055
63	0xbc87a46c	-0.016557895
64	0x3d3ff793	0.046866965
65	0xbd372de1	-0.044721488
66	0xbe64168d	-0.22274227
67	0xbd365833	-0.044517707
68	0x3cc41f6f	0.02394077
69	0x3c96e538	0.018419847
70	0xbe0bf264	-0.13666683
71	0xbe1ae680	-0.15126991
72	0x3d81ece8	0.063440144
73	0x3d99ffd0	0.075194955
74	0x3d9e08ba	0.07716508
75	0x3bac693c	0.0052615684
76	0x3c63f177	0.01391255
77	0xbcf7b10f	-0.030235795
78	0xbdf963ee	-0.12177263
79	0xbe07b374	-0.1325205
80	0xbe7e2945	-0.2482043
81	0xbd5b1b0e	-0.0534926
82	0xbdb75ae6	-0.089528844
83	0xbe3a9f76	-0.18224892
84	0xbe02d4f9	-0.12776555
85	0xbdd216bc	-0.102582425
86	0xbce2e379	-0.027696358
87	0xbe40f4bc	-0.18843359
88	0xbe1b35a5	-0.15157183
89	0x3cf563ed	0.029954875
90	0x3bac2482	0.0052533755
91	0xbdb2c7f3	-0.087295435
92	0xbe22300a	-0.15838638
93	0xbda30b8a	-0.07961185
94	0x3df6cd51	0.1205088
95	0xbcffdbe2	-0.031232778
96	0x3b95292b	0.0045520267
97	0x3d8e10a7	0.0693677
98	0x3da48dbc	0.08034846
99	0x3e17f192	0.14838246
100	0x3e178ec5	0.14800556
101	0x3e7850c0	0.24249554
102	0xbdaee992	-0.08540644
103	0xbe05718e	-0.13031599
104	0x3dc14d9e	0.094386324
105	0x3e2fa167	0.17151414
106	0x3cfc7bcf	0.030820755
107	0xbe7ec0ef	-0.24878286
108	0xbd6d1781	-0.057883743
109	0xbd2d49a4	-0.042306557
110	0xbdb6c583	-0.08924391
111	0xbe3eb28d	-0.18622799
112	0xbe857b77	-0.2607076
113	0xbd49733e	-0.04918217
114	0x3d1d870a	0.03845886
115	0xbdee10bf	-0.11624288
116	0xbe4febeb	-0.2030484
117	0xbdf734be	-0.12070607
118	0x3d4a81ef	0.04944032
119	0x3e07adad	0.13249846
120	0xbd1664de	-0.03671729
121	0xbd5bdfa8	-0.053680092
122	0x3c8a7632	0.016902063
123	0x3e0521d4	0.13001186
124	0x3dfc6823	0.1232455
125	0x3db5127c	0.08841416
126	0xbd8c8f9f	-0.06863331
127	0xbda03f5c	-0.07824585
128	0x3cf7672d	0.030200565
129	0xbdc2f4d2	-0.09519352
130	0xbe113a9e	-0.14182517
131	0xbe67eb42	-0.22648337
132	0xbd315a0d	-0.04329877
133	0xbda6ab5f	-0.08138155
134	0xbdfc74a1	-0.12326933
135	0xbe2f5e87	-0.17125903
136	0xbd5921bc	-0.053010687
137	0x3dbd10a4	0.092316896
138	0xbd8b6cdc	-0.06807873
139	0xbde4b7bd	-0.11167858
140	0xbd597909	-0.053093944
141	0x3d6c0792	0.057624407
142	0xbd8ac3df	-0.06775641
143	0xbde7c2fa	-0.11316486
144	0xbe4824b7	-0.19545256
145	0x3d1a9ee3	0.037749182
146	0xbd455c59	-0.048183773
147	0x38a998ce	8.08701e-05
148	0xbe220228	-0.15821135
149	0xbdb17d75	-0.08666507
150	0x3e03b9ac	0.12863797
151	0xbd9e4a37	-0.07728999
152	0xbe0dc98a	-0.13846412
153	0x3d7ee6f9	0.06223199
154	0xbc74e9ec	-0.014948349
155	0xbd9fc0b3	-0.07800426
156	0xbde98bdb	-0.114036284
157	0x3db9633e	0.09052132
158	0x3dace762	0.0844257
159	0xbd951d96	-0.07281034
160	0xbd2b27a5	-0.041785855
161	0x3d4d2ac8	0.050089628
162	0xbd8a680d	-0.06758127
163	0x3bbc0b36	0.005738641
164	0xbdf5cb1d	-0.120016314
165	0xbd66c2fb	-0.05633829
166	0xbdd69993	-0.10478511
167	0xbda73273	-0.08163919
168	0x3d869070	0.06570518
169	0xbe451668	-0.19246829
170	0x3c8bc596	0.01706199
171	0xbcc8cb9f	-0.024511157
172	0x3d1b2038	0.037872523
173	0xbd204805	-0.039131183
174	0xbdbfdf80	-0.09368801
175	0x3e2e0fa3	0.16998152
176	0x3d21bc22	0.039486058
177	0xbe121c72	-0.14268664
178	0xbd6203c2	-0.055179365
179	0x3cd5c27c	0.026093714
180	0x3e4b5804	0.19857794
181	0xbe356d35	-0.1771744
182	0xbe5c7ef9	-0.21532811
183	0x3d390543	0.045171034
184	0xbd0d0794	-0.034431055
185	0xbd44e79f	-0.048072454
186	0xbea35e3b	-0.3190783
187	0xbde66832	-0.112503424
188	0x3b948556	0.0045324964
189	0xbde81e6f	-0.1133393
190	0xbd4af8a2	-0.04955352
191	0xbe105312	-0.14094189
192	0xbd7dbcf8	-0.061947793
193	0x3caf7092	0.021415982
194	0xbdd3f98e	-0.10350333
195	0x3ccdb002	0.025108341
196	0xbc2ef6fb	-0.010679002
197	0x3d8df71a	0.069318965
198	0x3d73c1ba	0.059510924
199	0xbe1ab81c	-0.15109295
200	0x3eafa5fb	0.3430632
201	0x3dd172ba	0.102269605
202	0xbd6c3cc2	-0.05767513
203	0x3dc113aa	0.09427579
204	0x3e14beff	0.14525984
205	0x3e76efaa	0.24114862
206	0xbde0c72f	-0.10975491
207	0xbdf3dd2f	-0.11907422
208	0x3e83e2b3	0.25758895
209	0x3dff186a	0.124558285
210	0x3d609351	0.054827992
211	0xbe58253c	-0.21107954
212	0x3de818a2	0.11332823
213	0x3e75156e	0.23933956
214	0x3cf42906	0.029804718
215	0xbc3be6fe	-0.011468647
216	0xbe2ac22f	-0.16675638
217	0x3d2d37b1	0.04228944
218	0x3e4f25bb	0.20229237
219	0xbd3ccfb8	-0.046096534
220	0x3dcb2012	0.09918226
221	0xbd0e313d	-0.034714926
222	0x3e3c71b3	0.18402748
223	0x3e6b041b	0.22950785
224	0xbd590f05	-0.05299284
225	0xbdde8638	-0.10865444
226	0x3ebf0fd1	0.37316754
227	0x3e6254bd	0.22102638
228	0xbddacc6c	-0.10683522
229	0xbda67855	-0.0812842
230	0x3e0e5621	0.13900043
231	0x3e733a15	0.23752625
232	0xbc83d8f6	-0.016094666
233	0xbe5474f9	-0.20747747
234	0x3d913539	0.070902295
235	0x3e442549	0.19154848
236	0x3e054616	0.13015017
237	0xbdebb1b1	-0.11508501
238	0xbdf408f4	-0.1191577
239	0x3e77376d	0.24142237
240	0x3de89916	0.11357324
241	0x3d4850a8	0.048905045
242	0x3e1badd0	0.15203023
243	0x369f6340	4.7501235e-06
244	0x3e3e3b8f	0.18577407
245	0x3c533344	0.012890641
246	0x3db4de2f	0.08831441
247	0x3e33f737	0.17574774
248	0x3d106442	0.035251863
249	0x3e6d7871	0.23190476
250	0xbabbdb71	-0.0014332366
251	0xbd81dac5	-0.06340555
252	0xbd5e2c5d	-0.054241527
253	0xbd4b318e	-0.049607806
254	0xbc89726d	-0.016778195
255	0x3d51d408	0.0512276

bias f4 [20]
0	0x3cce6dcb	0.025198838
1	0x3d01558b	0.03157572
2	0x3cee2e87	0.02907492
3	0x3c21720a	0.009853849
4	0xbd6cebf6	-0.057842217
5	0xbd07b660	-0.03313291
6	0x3bee5773	0.0072736084
7	0x3db52ded	0.0884665
8	0x3bfd5f06	0.007732275
9	0x3bea14fc	0.007143615
10	0xbd08d1ec	-0.033403322
11	0x3d2fd22d	0.04292505
12	0xb9f607de	-0.00046926638
13	0xbc16e1d3	-0.009209114
14	0xb9aa0513	-0.00032428707
15	0x3c8f38bc	0.017483108
16	0xbd9c3391	-0.07627023
17	0xbcc56f17	-0.024100823
18	0x3cca10be	0.024666186
19	0x3c7d2a6b	0.015452008

weight f4 [50, 500]
0	0xbc3b4842	-0.011430802
1	0xbb5e06f1	-0.003387865
2	0x3ad7ab7d	0.0016454306
3	0xbbe0b1a9	-0.0068571162
4	0xbd2c4dc9	-0.04206637
5	0xbc65e6ef	-0.01403211
6	0xbd38cc6c	-0.045116827
7	0xbd2259d8	-0.039636463
8	0x3ced4387	0.028962864
9	0xbc813ee4	-0.015777059
10	0xbc9e3073	-0.019310212
11	0x3c281c19	0.010260605
12	0xbc197d42	-0.009368243
13	0xbd496082	-0.049164303
14	0xbbe9a2b2	-0.0071299905
15	0x3d0052a1	0.0313288
16	0xbd06c81a	-0.032905675
17	0xbc77b6a4	-0.0151192285
18	0x39102903	0.00013748188
19	0xbbf1a736	-0.0073746694
20	0xbb915ded	-0.0044362457
21	0x3c1ff317	0.009762547
22	0x3d189d1d	0.03725921
23	0x3c2bd9b7	0.010488919
24	0xbcb6eb3f	-0.022328971
25	0xbc991c40	-0.018690228
26	0xbcfb6c16	-0.030691188
27	0xbc577df3	-0.013152587
28	0x3b84b0d1	0.0040493985
29	0x3d138479	0.036015008
30	0xbd0691e0	-0.03285396
31	0xbca9ac59	-0.020712065
32	0xbca9a18f	-0.02070692
33	0xbcb9dea0	-0.022689164
34	0x3984cf80	0.00025331602
35	0xbd1871cc	-0.0372179
36	0xbce9e019	-0.02854924
37	0xbb8124b8	-0.003941145
38	0xbcdd8302	-0.027040008
39	0xbcdb1ebd	-0.026748056
40	0xbc0cc63b	-0.008592184
41	0xbbd956f3	-0.0066326796
42	0xbd27c967	-0.040963557
43	0xbbb88e2a	-0.0056321817
44	0x3a0fb44d	0.0005481884
45	0xbc2c17be	-0.010503707
46	0xbd47de4e	-0.04879599
47	0xbd28c105	-0.041199703
48	0x3c2c8e2d	0.010531944
49	0xbcf2e382	-0.0296495
50	0xbca9747d	-0.020685429
51	0xbd22449d	-0.039616216
52	0xbcf936d9	-0.030421661
53	0xbb254a91	-0.0025221447
54	0xbc8db939	-0.017300235
55	0xbd11182d	-0.035423446
56	0xbc60593b	-0.013693149
57	0x3cf80a4a	0.030278344
58	0x3c4b738b	0.012417684
59	0xbcd3781d	-0.02581411
60	0xbc928818	-0.01788716
61	0xbd53886d	-0.051643778
62	0x3c82dfc3	0.015975839
63	0xb9b2aced	-0.00034079645
64	0x3ad8ca97	0.0016539869
65	0x3ac97569	0.0015370074
66	0x3c833ab2	0.016019199
67	0x3c5be587	0.013421423
68	0xbd2c709e	-0.042099588
69	0xbc55e234	-0.013054419
70	0xbc91df55	-0.017806688
71	0xbc800367	-0.015626622
72	0x3c0619ac	0.008184832
73	0x3ce54a9f	0.027989684
74	0xbd568280	-0.05237055
75	0xbd0c5d45	-0.034268636
76	0x3c920dfc	0.017828934
77	0xbcb1844e	-0.021669533
78	0xbd4f43f3	-0.05060191
79	0xbd4031a8	-0.046922356
80	0xbcf8365c	-0.030299358
81	0xbbacea82	-0.005276979
82	0xbcc83da3	-0.024443453
83	0x3cc6ab7b	0.02425169
84	0xbc776e6e	-0.015102012
85	0x3bf1feea	0.0073851245
86	0xbd4009bd	-0.046884287
87	0x3c85ace4	0.016317792
88	0xbbae7707	-0.0053242478
89	0x3cbc0673	0.022952294
90	0x3c5cd6c9	0.013478943
91	0xbd1e6534	-0.038670734
92	0xbd589ee8	-0.05288592
93	0xbb34931c	-0.0027553504
94	0xbc4a7bc4	-0.01235861
95	0xbd49ca31	-0.04926509
96	0x3c855ccb	0.016279599
97	0x3b96979a	0.004595709
98	0xbcf32fe9	-0.029685931
99	0xbd197348	-0.037463456
100	0x3ca25c3b	0.01981937
101	0xbd2ee9eb	-0.04270355
102	0xbaa62944	-0.0012677093
103	0xbcc38ee7	-0.023871852
104	0xbd379ff2	-0.04483027
105	0xbc89b43e	-0.016809579
106	0xbbd01a4b	-0.0063507906
107	0xbd5438ac	-0.05181186
108	0xbbb3422c	-0.005470535
109	0xbc592d93	-0.013255495
110	0x3bbbbc22	0.0057292143
111	0xbc8dce32	-0.017310236
112	0xbc09ef8b	-0.008418928
113	0x3c26f7d6	0.010190925
114	0x3c8fac5b	0.01753824
115	0xbceecfa0	-0.029151738
116	0xbd53c453	-0.0517009
117	0xbce26355	-0.027635256
118	0x3d055283	0.032549392
119	0x3c595a44	0.01326615
120	0xbd2c6ae9	-0.042094145
121	0xba55591e	-0.00081385847
122	0x3c9533dc	0.018213205
123	0x3bcc32ed	0.0062316568
124	0xbbcc8a12	-0.006242045
125	0xbcc83985	-0.02444149
126	0x3c98b305	0.01864005
127	0xbaba6d00	-0.0014223158
128	0xbc41d3e8	-0.011830308
129	0x3cbfaf31	0.023398967
130	0x3cf5b847	0.029995097
131	0x3d06a850	0.03287536
132	0xbd295633	-0.04134197
133	0xbcc04f30	-0.02347526
134	0xbcbbad46	-0.022909772
135	0xbd352e4a	-0.044233598
136	0xbcfd0e15	-0.030890504
137	0xbc07386a	-0.008253196
138	0xbd255724	-0.040366307
139	0x3c3433c7	0.010998673
140	0x3c5fda74	0.013662923
141	0x3d072ac5	0.032999773
142	0x3cdac43f	0.026704906
143	0xbcc061c9	-0.023484128
144	0x3c2429ce	0.010019733
145	0xbc9c8d2c	-0.019110285
146	0xbd287074	-0.04112287
147	0x3d0a204f	0.033722218
148	0x3d01854e	0.03162127
149	0x3c0295c7	0.00797028
150	0x3ba4a2d8	0.0050242953
151	0x3cece6c6	0.028918635
152	0xba11b100	-0.0005557686
153	0xbccd404a	-0.02505507
154	0x3b9b8df8	0.0047471486
155	0xbb99b1c0	-0.004690379
156	0xbaa5c3a0	-0.0012646802
157	0xbcac53ea	-0.021036107
158	0xbb9d2e30	-0.0047967657
159	0x3cbf4c4e	0.023351815
160	0x3c2958c8	0.0103361085
161	0xbca50340	-0.020143151
162	0x3c947862	0.01812381
163	0x3d1991e9	0.037492666
164	0xbd06cac3	-0.032908212
165	0x3bb49240	0.0055105984
166	0xbcdd9711	-0.027049573
167	0x3bbbe410	0.0057339743
168	0xbb394bb0	-0.0028273873
169	0x3d02f527	0.031972077
170	0xbbdd02e8	-0.006744731
171	0x3c11c08c	0.008896004
172	0x3c0c2040	0.008552611
173	0x3d0e15c9	0.034688745
174	0xbceadb27	-0.028668953
175	0xbc8bb215	-0.01705269
176	0xbd298001	-0.04138184
177	0x3c35dec1	0.011100472
178	0xbcc975a8	-0.024592236
179	0xbcbf25ef	-0.023333518
180	0xbd55eabf	-0.052225824
181	0x3baae524	0.005215304
182	0xbc140f0e	-0.009036792
183	0xbc9d79bf	-0.019223092
184	0xbd10302c	-0.03520219
185	0xbd5d7ec8	-0.054075986
186	0xbc286da5	-0.010280048
187	0xbc996a2f	-0.01872739
188	0x3d00f07d	0.031479347
189	0x39f81d40	0.0004732404
190	0xbbe8230f	-0.0070842574
191	0xbcf4d068	-0.029884532
192	0xbd485c33	-0.048916053
193	0x3d045849	0.032310758
194	0xbbf57690	-0.0074909404
195	0xbd042aa9	-0.032267246
196	0xbb697319	-0.0035621582
197	0x3ce98122	0.028503958
198	0x3cb83ef5	0.022490958
199	0x3d02cb43	0.031932127
200	0x3b4a43b2	0.0030863103
201	0x3d09c6d8	0.033636898
202	0x3cc6aaf1	0.024251433
203	0xbc2f1983	-0.010687235
204	0xbcc29af0	-0.02375552
205	0xbb9c10e8	-0.0047627576
206	0xbcdf0404	-0.027223594
207	0x3c858e6e	0.016303267
208	0xbce6f6ff	-0.028193949
209	0xbc2bd307	-0.010487325
210	0x3cb4b2db	0.022057941
211	0xbd2bd25d	-0.041948665
212	0xbbdf4525	-0.0068136626
213	0x3ce63144	0.028099664
214	0xbd1363d5	-0.03598388
215	0x3d0d8325	0.034548897
216	0xbd16db7b	-0.036830407
217	0xbd048387	-0.032351997
218	0x3d003187	0.031297233
219	0x3cda48ac	0.02664598
220	0xbd262390	-0.04056126
221	0xbcb25565	-0.021769235
222	0xbcb2cc49	-0.021825926
223	0xbbeda76d	-0.0072526247
224	0xbc015180	-0.007892966
225	0xbc8baf3e	-0.017051335
226	0x3bc6d080	0.0060673356
227	0x3c902f2b	0.017600616
228	0xbad78648	-0.0016443217
229	0xbcbf5178	-0.023354277
230	0xbd16315c	-0.036668167
231	0xbc26428c	-0.010147702
232	0xbcd33c37	-0.025785549
233	0xbce90dd2	-0.028448973
234	0xbc1ea770	-0.009683475
235	0x3cc41825	0.023937294
236	0xbc32146b	-0.010869126
237	0x3c99fc00	0.01879692
238	0xbcbaec76	-0.022817831
239	0xbd253656	-0.040335022
240	0x3c916c22	0.017751757
241	0x3c59370a	0.013257751
242	0x3cbda788	0.023151174
243	0x3bcb0060	0.006195113
244	0xbbf36d95	-0.0074288347
245	0x3c14956e	0.00906883
246	0x3c49a764	0.012307975
247	0xbd393cbc	-0.045223936
248	0xbcb5973c	-0.02216684
249	0x3cc91df1	0.02455041
250	0xbd4fce5f	-0.05073392
251	0xbd2f03f5	-0.042728383
252	0x3ce5f36c	0.028070174
253	0x3b9e36e0	0.004828319
254	0x3c3268ec	0.010889273
255	0x3b668a58	0.0035177674

bias f4 [50]
0	0x3b1146f2	0.002216753
1	0xbd45835e	-0.048220985
2	0xbd5aa816	-0.053382955
3	0x3b0d4bb5	0.0021560017
4	0x3d3f145f	0.046650287
5	0x3c9547d4	0.018222727
6	0x3c26564e	0.010152413
7	0xbd1880b1	-0.037232105
8	0xbcc1950b	-0.02363064
9	0xba03f682	-0.0005033986
10	0x3d394aa8	0.045237213
11	0x3d216ef4	0.039412454
12	0xbcb81e33	-0.022475338
13	0x3d105987	0.03524163
14	0x3d44aa68	0.048014075
15	0xbc3642c2	-0.011124315
16	0x3d14ae64	0.036299124
17	0x3d93d83b	0.07218977
18	0x3d03a4c0	0.03213954
19	0x3b3d01fb	0.0028840292
20	0x3cc35f90	0.023849279
21	0xbc8d706b	-0.01726552
22	0x3cfecd21	0.031103672
23	0x3d745a39	0.059656356
24	0x3d661d17	0.056180086
25	0xbc324cea	-0.010882596
26	0x3baa716a	0.0052015083
27	0x3d4e2e13	0.05033691
28	0x3d451b33	0.048121642
29	0x3c18fd9b	0.009337808
30	0x3cafc75b	0.021457365
31	0x3cfbee32	0.030753229
32	0xbd00f64d	-0.03148489
33	0xbc0ce98b	-0.008600603
34	0xbaf2ea49	-0.0018532957
35	0x3cf69908	0.030102268
36	0x3d0e43c9	0.034732614
37	0x3ba3d757	0.0050000357
38	0xbcd4aee8	-0.025962308
39	0xbc4ddebc	-0.012565311
40	0x3cf9f5cf	0.030512718
41	0xbd0aa59f	-0.033849355
42	0x3cb86d25	0.022512982
43	0xbc8bec86	-0.017080557
44	0xbca86624	-0.020556517
45	0xbdab92ce	-0.0837761
46	0x3c283528	0.01026658
47	0x3d15d5b7	0.036580767
48	0x3b2cc9ba	0.0026365356
49	0x3d98da0d	0.07463465

weight f4 [10, 50]
0	0xbd83009e	-0.06396602
1	0xbd54f194	-0.0519882
2	0xbdae05c1	-0.08497191
3	0xbe624883	-0.22097974
4	0xbe15b015	-0.14617951
5	0xbdbe7d92	-0.093012944
6	0xbe374fd1	-0.17901541
7	0xbd9156bc	-0.070966214
8	0xbd855f51	-0.06512321
9	0xbd490a45	-0.04908206
10	0x3dc198e4	0.0945299
11	0x3e1588e2	0.14602998
12	0xbdd50fe0	-0.104034185
13	0x3df76809	0.1208039
14	0xbc7085a6	-0.014680302
15	0x3cce741d	0.025201852
16	0xbcc5c753	-0.024142897
17	0x3dc24fc1	0.09487868
18	0x3e066793	0.13125448
19	0x3d889fc6	0.06671099
20	0xbca09eea	-0.019607026
21	0x3d3fd52d	0.04683416
22	0xbd84e980	-0.06489849
23	0x3e5ecf8f	0.21758865
24	0x3df17a96	0.117909595
25	0x3d0bfdf7	0.034177747
26	0xbe59e6a1	-0.21279384
27	0x3daaa10b	0.08331498
28	0x3dae8a6d	0.08522496
29	0xbd2e1af2	-0.042506166
30	0x3e3e2334	0.18568116
31	0x3db31756	0.08744685
32	0xbc99a807	-0.01875688
33	0xbc0075fc	-0.00784063
34	0xbe3e9364	-0.18610913
35	0xbd9b8242	-0.07593204
36	0xbe8efdeb	-0.279281
37	0xbe5e527d	-0.21711154
38	0xbc47698e	-0.012171162
39	0xbd560c05	-0.052257556
40	0x3cc248d7	0.023716373
41	0xbdb0f12c	-0.0863975
42	0x3ddac951	0.10682929
43	0x3e37ee65	0.17962034
44	0x3de9505a	0.11392279
45	0xbcf09382	-0.029367212
46	0xbc505409	-0.012715348
47	0x3cbd8bf1	0.023138018
48	0x3da88b2b	0.08229669
49	0xbdd9ad22	-0.106287256
50	0xbd6eb9e6	-0.058282755
51	0xbd8ebd7c	-0.06969735
52	0x3c4537ae	0.012037201
53	0xbe26657e	-0.16249654
54	0x3e4318ea	0.19052473
55	0xbdd2f920	-0.10301423
56	0xbc2c321a	-0.010509992
57	0x3dc3ac82	0.09554388
58	0x3db2fcd8	0.08739632
59	0xbc97471a	-0.018466521
60	0x3e65d3db	0.22444098
61	0xbe8deaa0	-0.27718067
62	0x3e1c93fa	0.15290824
63	0xbe69edc1	-0.22844602
64	0x3e8b0f85	0.27160278
65	0x3be1ab77	0.0068868953
66	0xbe4c0f3e	-0.1992769
67	0x3dda559b	0.10660859
68	0x3e318440	0.17335606
69	0x3ca35734	0.019939043
70	0x3df55038	0.11978191
71	0x3b8bd4c9	0.0042673093
72	0xbde0edaf	-0.109828345
73	0x3d4a705b	0.049423557
74	0xbd96094e	-0.073259935
75	0xbdaf9dbf	-0.085750096
76	0x3e32bee7	0.17455636
77	0xbd284d47	-0.041089322
78	0xbe82f0b9	-0.25574282
79	0x3e69ffbd	0.22851463
80	0xbd9baaf6	-0.076009676
81	0x3e816b27	0.25277063
82	0xbd34af97	-0.044112768
83	0x3e2f3060	0.17108297
84	0xbd34f87b	-0.044182282
85	0xbe109e63	-0.1412292
86	0xbe02d428	-0.12776244
87	0x3dbcc9e3	0.09218194
88	0x3ddb761f	0.10715889
89	0x3de9019a	0.113772586
90	0xbc5df440	-0.013547003
91	0x3d3df804	0.046379104
92	0x3c7f5496	0.015584132
93	0xbe11926c	-0.14216012
94	0xbad7736b	-0.0016437595
95	0x3ccb4826	0.024814676
96	0x3e4655f8	0.19368732
97	0xbe8ed648	-0.2789786
98	0xbe9069bd	-0.28205672
99	0x3dfef24c	0.12448558
100	0x3db6313a	0.08896108
101	0xbd9203e6	-0.0712965
102	0xbd80909a	-0.062775806
103	0xbd5bf13c	-0.053696856
104	0xbe90f142	-0.28309065
105	0x3e208974	0.15677434
106	0x3e07a88f	0.13247894
107	0xbc9b069a	-0.018924046
108	0xbc444662	-0.011979671
109	0xbdbb1966	-0.09135704
110	0xbe97e205	-0.29664627
111	0xbe555fdc	-0.20837349
112	0x3d0476e7	0.032339957
113	0xbe1ef985	-0.15524872
114	0xbdf04460	-0.117317915
115	0xbd2d4c0d	-0.042308856
116	0x3e3c5c21	0.1839452
117	0x3da24603	0.0792351
118	0xbdd83d84	-0.10558608
119	0xbdff119d	-0.12454531
120	0x3e1df9b8	0.15427291
121	0xbd638815	-0.0555497
122	0x3d0e7c91	0.034786765
123	0xbc98b526	-0.018641066
124	0x3dcf6257	0.10126179
125	0x3d4a9f76	0.04946848
126	0xbd55c8a0	-0.052193284
127	0x3dc9c730	0.09852445
128	0x3d0ac9db	0.03388391
129	0x3df6a066	0.12042312
130	0xbe4f26cc	-0.20229644
131	0x3dd89425	0.10575131
132	0x3dc46db4	0.09591237
133	0x3d9334a8	0.07187778
134	0x3df3f4ed	0.1191195
135	0xbdb370a6	-0.0876172
136	0x3e225260	0.15851736
137	0xbe2cab4e	-0.16862223
138	0xbdc72fb8	-0.097258985
139	0xbc5f0993	-0.0136131225
140	0xbda9fc4c	-0.08300075
141	0x3d971eef	0.07378947
142	0x3d3069b1	0.043069545
143	0x3e3579e6	0.17722282
144	0x3e6ab488	0.2292043
145	0x3c6afb87	0.014342195
146	0x3e0c7741	0.13717367
147	0xbdb4986e	-0.08818136
148	0xbe4efd80	-0.2021389
149	0xbe633fe4	-0.22192341
150	0xbc81162a	-0.015757639
151	0xbde2b317	-0.11069315
152	0x3d928707	0.07154661
153	0xbd733747	-0.05937889
154	0x3e1f63fa	0.15565482
155	0x3e3af3a9	0.18257011
156	0xbe3c8ceb	-0.18413131
157	0x3d80d97b	0.06291481
158	0x3daf9713	0.08573737
159	0xbc41fbb2	-0.011839794
160	0xbd3779d7	-0.04479393
161	0xbe06cf2a	-0.13164964
162	0x3e0eecec	0.13957566
163	0x3d8bd30e	0.06827365
164	0xbde11da2	-0.1099198
165	0xbc81abdb	-0.015829017
166	0xbe468ca3	-0.19389586
167	0x3d615c00	0.05501938
168	0xbea1f0c7	-0.3162901
169	0x3dc5e44c	0.09662685
170	0x3ddbcd3c	0.10732505
171	0x3cc3f9da	0.02392285
172	0x3d6b3570	0.05742401
173	0xbd86b5ed	-0.06577668
174	0xbe6d721a	-0.23188058
175	0xbdc4e644	-0.09614232
176	0xbd20f899	-0.03929958
177	0xbe4da3ac	-0.20081967
178	0xbdf670a2	-0.12033202
179	0xbd9c7334	-0.07639161
180	0x3de33a36	0.11095087
181	0xbdf3ec81	-0.11910344
182	0xbdd376d8	-0.10325402
183	0x3e38a5a5	0.18031938
184	0x3d074809	0.033027682
185	0x3dcd6596	0.100291416
186	0x3e005292	0.12531498
187	0xbe033888	-0.12814534
188	0x3d7f62f5	0.062350232
189	0x3e05d906	0.13071069
190	0x3df63a24	0.12022808
191	0xbbffe4a1	-0.007809237
192	0x3d002344	0.031283632
193	0x3df936b2	0.121686354
194	0xbdabc377	-0.08386891
195	0x3c0cfacc	0.0086047165
196	0xbe52951f	-0.20564698
197	0x3dea8590	0.11451256
198	0x3e20ce9b	0.15703814
199	0x3dd2bab3	0.10289516
200	0xbdeb16f6	-0.11478989
201	0x3dc8aaf9	0.097982354
202	0x3d82d476	0.0638818
203	0x3dda3b9d	0.106559016
204	0x3d4842a4	0.04889168
205	0xbe210497	-0.15724407
206	0x3e30fefa	0.17284766
207	0xbbc8df09	-0.0061301035
208	0xbe35e20c	-0.17762011
209	0x3d7ea737	0.062171187
210	0xbe62ee33	-0.22161178
211	0xbe31da9a	-0.17368546
212	0xbd93e3da	-0.072211936
213	0x3de40bd3	0.11135068
214	0x3e6b6b94	0.22990257
215	0x3d29bae5	0.041438002
216	0x3e38dd56	0.18053183
217	0xbe4d0078	-0.2001971
218	0xbe9ca374	-0.30593455
219	0xbdb2659c	-0.08710787
220	0xbdccf768	-0.100081265
221	0x3e398bd5	0.18119748
222	0x3be3f8c4	0.0069571454
223	0xbeb41b24	-0.35176957
224	0x3e0c1a50	0.13681912
225	0x3c74b46c	0.014935594
226	0x3e0df2f8	0.13862216
227	0xbaebf48a	-0.0018001955
228	0xbd65ef0c	-0.056136176
229	0xbc3efc48	-0.011656828
230	0x3ddcbf37	0.10778659
231	0x3e40c43c	0.18824857
232	0xbd636989	-0.055520568
233	0xbcfe9892	-0.03107861
234	0xbe415026	-0.1887823
235	0xbc51eff6	-0.012813559
236	0xbe959d9f	-0.29221818
237	0xbdbe7c4d	-0.09301052
238	0xbe07c61d	-0.13259168
239	0x3d792b70	0.06083244
240	0xbdfb4a35	-0.12270013
241	0xbd8efe3c	-0.06982085
242	0xbe5a307b	-0.21307556
243	0xbe0d0ec0	-0.13775158
244	0x3e28fc82	0.16502574
245	0x3cba5402	0.022745136
246	0x3e1b0d28	0.15141737
247	0x3e3839dd	0.17990823
248	0xbe99c8d5	-0.30036035
249	0x3e17f387	0.14838992
250	0x3c94560a	0.018107433
251	0xbd8d6c72	-0.0690545
252	0xbd9a0825	-0.07521085
253	0x3d2e51d8	0.04255852
254	0x3dd0f0fb	0.102022134
255	0xbe2d26b3	-0.16909294

bias f4 [10]
0	0xbde8267f	-0.113354675
1	0x3dd609af	0.10451066
2	0xbdb4200a	-0.087951735
3	0xbdc2364c	-0.094830126
4	0x3d0250cc	0.031815335
5	0xbde6b752	-0.11265434
6	0x3de26cb2	0.11055888
7	0xbe09b306	-0.13447198
8	0x3ca9d2eb	0.020730456
9	0xbb59bc5d	-0.0033223846
