mlruns/492255811164162868/20e6ecc23fd846c3af03e35199f0ddc0/artifacts/mnist_model_mlflow/data/model.pth (torch, 130408 bytes, 8 tensors)

weight f4 [10, 1, 5, 5]
-0.22308524 0.20351762 0.06632459 0.11148814 -0.06411428 0.104494624 0.21680517 0.22123213
0.05526229 -0.3313848 0.21364307 0.14210822 -0.13102297 -0.43679875 -0.47110817 0.198132
0.34648064 0.024627808 -0.32828256 -0.4140816 0.0064615877 0.025164185 0.3579477 0.20481074
-0.0012683619 0.37933823 0.105694816 -0.05981264 -0.2037715 -0.31587037 0.44107965 0.20961083
-0.062431224 -0.45840487 -0.13438137 0.36271417 0.09858179 -0.28312942 -0.37411326 -0.14711976
0.24611828 -0.016962217 -0.18750305 -0.38743737 -0.05327196 0.17245692 0.09726495 -0.14794195
-0.09606272 0.10612836 0.047100157 0.15881918 0.10791333 0.22996049 -0.05301747 0.16701762
0.09743713 0.24321581 0.31208646 0.0038376376 0.27556008 -0.08080353 0.18409084 0.07973158
0.12496359 -0.04497343 -0.263279 0.05898075 0.07761736 0.25444493 -0.4567474 -0.3760177
0.04114506 -0.03513661 -0.09045565 0.16045922 0.15337645 0.08070737 0.3073628 0.19935322
0.15862508 0.025755608 0.27861843 0.36026013 0.16987973 0.16568974 0.20823061 0.23133701
0.12231884 0.32810903 0.20419887 0.10040058 0.03174267 -0.33363003 -0.25936955 -0.18080178
-0.51486313 -0.67550457 -0.59918267 -0.22075811 0.2147404 0.120647065 0.3159799 0.068653576
-0.10568619 0.08907361 0.23310395 0.2693312 -0.051896736 0.07300851 -0.17630391 0.078936026
0.13410139 0.28261214 4.695582e-05 -0.56051224 -0.33593222 -0.16911335 0.26583153 0.04164363
-0.42306757 -0.15693657 0.11874238 0.2071829 0.33016396 -0.117435336 -0.2208535 -0.19563526
0.052432172 -0.08366908 -0.477551 -0.39372006 -0.010555115 0.26124212 0.15473978 -0.15061502
0.19012214 0.28913653 0.3399059 0.3124968 0.3382133 0.12087194 0.36116034 0.0054546506
-0.13666463 0.042313527 0.17610563 -0.0425404 0.051190212 -0.3550203 -0.0931431 -0.20554462
0.077980384 0.18838276 -0.01709864 -0.07488432 0.14363995 -0.071867496 0.14628164 0.20289114
0.06406541 0.12214201 0.1450537 -0.14488128 0.1613881 0.17140944 0.25821286 -0.16248497
-0.073492214 0.24999683 0.083583154 0.17047465 0.043601118 0.016161997 0.143693 -0.119903125
0.09307864 0.35793233 0.13256027 -0.1035326 -0.09072751 -0.10751967 0.3060973 0.30357972
0.32063308 0.066303134 -0.34526575 -0.16486277 0.32920954 0.32906318 -0.4065723 -0.20383199
-0.30793783 0.29125848 0.5327105 -0.24837004 -0.3781053 -0.22657473 0.10294904 0.28424913
-0.039278965 0.072705194 0.11108776 -0.116668 0.12294746 0.18881309 0.23225318 0.08814269
0.08684014 -0.19289176 -0.08420489 0.043295827 0.18099754 -0.0073102945 0.11411176 0.023304472
-0.10347491 0.28950578 -0.007302852 0.3149056 0.019460334 0.12503959 0.09132269 0.106203005
-0.20624205 -0.05087061 -0.2020735 -0.23122631 -0.55022776 -0.5889761 0.15578113 0.052042227
0.31313708 0.097912304 -0.084298804 0.12143492 0.3742787 0.5263728 0.45217493 0.11619298
-0.024877802 -0.14672592 0.110119455 0.29938975 0.20166872 -0.2727834 -0.4246192 -0.03761768
0.07168907 -0.08717253
00000000: 7570 64be ec66 503e 30d5 873d e553 e43d
00000010: 594e 83bd 4701 d63d 2d02 5e3e ad8a 623e
00000020: b65a 623d 45ab a9be 40c5 5a3e d184 113e
00000030: e32a 06be 16a4 dfbe 1735 f1be 1de3 4a3e
00000040: e965 b13e 42c0 c93c a714 a8be 8102 d4be
00000050: babb d33b 1f25 ce3c ec44 b73e e8b9 513e
00000060: 2a3f a6ba 9f38 c23e 8676 d83d 19fe 74bd
00000070: 7aa9 50be c3b9 a1be 31d5 e13e 39a4 563e
00000080: e2b7 7fbd 0bb4 eabe 459b 09be acb5 b93e
00000090: 40e5 c93d 57f6 90be c68b bfbe 90a6 16be
000000a0: 6e06 7c3e 59f4 8abc cd00 40be 315e c6be
000000b0: b333 5abd 8c98 303e d932 c73d 187e 17be
000000c0: 88bc c4bd d359 d93d 18ec 403d 7fa1 223e
000000d0: aa01 dd3d c37a 6b3e d928 59bd ab06 2b3e
000000e0: 1e8d c73d 910d 793e ccc9 9f3e e080 7b3b
000000f0: 3616 8d3e 527c a5bd 4f82 3c3e 504a a33d
00000100: e9ec ff3d 0f36 38bd 81cc 86be cd95 713d
00000110: daf5 9e3d 9b46 823e ccda e9be 6485 c0be
00000120: b987 283d 68eb 0fbd d040 b9bd 6c4f 243e
00000130: b70e 1d3e e849 a53d a85e 9d3e 4023 4c3e
00000140: 9d6e 223e 6dfd d23c 13a7 8e3e 0474 b83e
00000150: f4f4 2d3e 92aa 293e 683a 553e 9ce3 6c3e
00000160: 4d82 fa3d e8fd a73e 8219 513e d29e cd3d
00000170: 9a04 023d 8ed1 aabe 16cc 84be 1a24 39be
00000180: 12ce 03bf deed 2cbf 0964 19bf 6a0e 62be
00000190: e8e4 5b3e cf15 f73d 1ec8 a13e 3f9a 8c3d
000001a0: 0072 d8bd 3a6c b63d cdb2 6e3e c7e5 893e
000001b0: ac91 54bd 7c85 953d 0389 34be 36a9 a13d
000001c0: e051 093e 8ab2 903e 6ef2 4438 bb7d 0fbf
000001d0: 4fff abbe 0d2c 2dbe 121b 883e 8392 2a3d
000001e0: 509c d8be fbb3 20be 342f f33d c127 543e
000001f0: 400b a93e f081 f0bd 6b27 62be 9c54 48be
00000200: 1ec3 563d b25a abbd 9181 f4be ad95 c9be
00000210: 5cef 2cbc 87c1 853e 1b74 1e3e d33a 1abe
00000220: 61af 423e b409 943e 2508 ae3e 95ff 9f3e
00000230: 4b2a ad3e b58b f73d 02ea b83e edbc b23b
00000240: d0f1 0bbe f350 2d3d 0955 343e d83e 2ebd
00000250: d4ac 513d 39c5 b5be cfc1 bebd 4a7a 52be
00000260: 2eb4 9f3d 69e7 403e 7212 8cbc f35c 99bd
00000270: 5a16 133e 442f 93bd dbca 153e b2c2 4f3e
00000280: ba34 833d 9725 fa3d f588 143e c25b 14be
00000290: ec42 253e f585 2f3e 7a34 843e 7662 26be
000002a0: 1683 96bd 2bff 7f3e a52d ab3d e890 2e3e
000002b0: 1697 323d 2a66 843c 4224 133e c58f f5bd
000002c0: 04a0 be3d e842 b73e e1bd 073e e608 d4bd
000002d0: 58cf b9bd 4633 dcbd c9b8 9c3e cd6e 9b3e
000002e0: 052a a43e f0c9 873d acc6 b0be c9d1 28be
000002f0: 278e a83e f87a a83e 3f2a d0be 55b9 50be
00000300: 07aa 9dbe d51f 953e b75f 083f b754 7ebe
00000310: 0597 c1be 3503 68be f2d6 d23d 1a89 913e
00000320: fbe2 20bd 76e6 943d fb81 e33d a2ef eebd
00000330: e1cb fb3d 3858 413e c7d3 6d3e 2884 b43d
00000340: 3ed9 b13d 6b85 45be 9d73 acbd f756 313d
00000350: 6b57 393e 328b efbb 6db3 e93d 05e9 be3c
00000360: a7ea d3bd 1a3a 943e c34c efbb 4f3b a13e
00000370: 476b 9f3c 610a 003e 6407 bb3d f680 d93d
00000380: 1e31 53be b35d 50bd 5bec 4ebe 97c6 6cbe
00000390: badb 0cbf 23c7 16bf 1785 1f3e 3b2a 553d
000003a0: 8153 a03e 3f86 c83d daa4 acbd dfb2 f83d
000003b0: 75a1 bf3e 5ec0 063f 7983 e73e 96f6 ed3d
000003c0: 88cc cbbc 523f 16be 4f86 e13d 9d49 993e
000003d0: 3f82 4e3e 44aa 8bbe b067 d9be ff14 1abd
000003e0: b8d1 923d 8387 b2bd

bias f4 [10]
-0.0068002227 -0.074951194 -0.0074509964 0.09708634 -0.086766385 -0.004288363 -0.17009342 -0.06384263
-0.038599446 0.0065701487
00000000: 67d4 debb 0380 99bd 7d27 f4bb 34d5 c63d
00000010: 93b2 b1bd 6585 8cbb f82c 2ebe edbf 82bd
00000020: 741a 1ebd 674a d73b

weight f4 [20, 10, 5, 5]
0.015434138 0.059049472 0.10559712 0.027109357 -0.008349169 -0.0009850593 0.24788602 0.3570103
0.096100405 -0.08542789 -0.12215577 -0.10459366 0.142096 0.08130895 0.05761631 -0.05091398
-0.02746012 -0.056890935 0.01167596 -0.0061289202 -0.16242659 -0.115706705 -0.16258456 -0.1337945
-0.06369247 0.093139336 0.09058515 0.18451081 0.0781627 0.16782372 0.009040455 -0.0051825517
-0.12675199 -0.14876828 -0.2016034 -0.2138915 -0.31654912 -0.37493837 -0.13834308 -0.11253056
-0.115185395 -0.27164283 -0.2917686 -0.09796602 0.030001786 -0.06213644 -0.29093194 -0.37068218
-0.1411459 0.16836117 -0.061920546 -0.24140504 -0.13288516 0.072801635 0.096360005 0.0061282218
-0.0024988307 -0.17505513 -0.2332946 -0.037895367 0.12889056 0.15098745 0.019327745 -0.012020091
-0.09539208 0.03311839 0.10974841 0.1859989 0.24394143 0.14087094 -0.044307064 -0.15543784
-0.08590736 -0.045865074 -0.036826372 -0.17673525 -0.106910884 0.21004064 0.21038714 0.14916539
-0.08513685 -0.3083983 -0.16697334 -0.056066338 -0.059239864 0.009756963 0.03200504 -0.07087235
-0.081681736 -0.05787443 0.061034862 0.12261586 0.20267513 0.16295062 0.15423933 -0.025181212
-0.066702195 -0.019488953 0.06240857 0.0768087 0.0103351185 -0.11658907 -0.32476574 -0.0618624
0.009410512 0.016165432 0.046542548 -0.11705985 -0.25400716 -0.07910939 0.11134272 0.09687066
0.17190656 0.059781857 -0.06913244 -0.07431035 0.11832514 0.14217839 0.19472149 0.18797615
-0.032964725 -0.04958625 -0.12180608 0.022761222 0.014956753 -0.03716316 0.10738753 0.082304
-0.019240495 -0.06240278 -0.002764776 0.01591911 0.040344898 0.056861702 -0.054869555 0.09158695
0.032376733 -0.02736265 0.0395923 0.05996606 0.036352042 0.010720851 -0.100839965 -0.07315271
0.004924155 -0.10427023 -0.105469644 -0.11731161 0.030957403 -0.0013895532 -0.0057926737 0.02128834
-0.0031773984 -0.056864925 -0.028107911 0.043637246 0.01357062 -0.04238175 -0.039202202 -0.029791668
0.026127148 0.058067646 0.036767222 0.080927335 0.038281973 0.028823862 -0.051803358 -0.016954686
-0.08976583 -0.03277225 -0.16664188 -0.13748771 -0.07605837 -0.007547672 -0.12107964 0.02080374
-0.14102282 -0.2238704 -0.069197975 0.08066106 0.08255188 0.05509932 -0.300825 -0.18766244
-0.24469934 0.18584575 0.25702193 0.15151656 -0.08271377 -0.19952519 -0.06394698 0.11939916
0.16388926 0.21317923 0.04766977 -0.0661697 -0.16350615 -0.12285217 -0.023094662 -0.017493099
-0.016060669 -0.008701956 -0.11237701 -0.088875726 -0.09436563 0.0032275235 0.097857445 0.018860305
-0.13847318 -0.086070314 0.04493575 0.12943178 0.11603142 0.104195625 -0.030880459 -0.035965823
-0.029723138 0.08308707 0.09189457 0.051597748 -0.052412193 -0.0622138 -0.09247548 -0.04806536
-0.021422196 -0.081104696 -0.13595489 -0.22910666 -0.10137934 0.026048524 -0.03681177 0.018248782
-0.19545026 -0.15502298 -0.13537529 -0.074372865 0.30534136 0.36009547 0.3007294 0.09382036
-0.0758391 -0.02512894 0.1816122 0.26373115 0.2181787 -0.07996065 -0.16042325 -0.19143547
-0.13378626 -0.08803722 -0.05267629 -0.17970699 -0.042513557 0.008115662 0.045804225 -0.10997077
00000000: 77df 7c3c dcdd 713d 4e43 d83d 7114 de3c
00000010: f4ca 08bc 1b1d 81ba d5d5 7d3e 0eca b63e
00000020: 4ad0 c43d d1f4 aebd ce2c fabd 3335 d6bd
00000030: 9d81 113e 4f85 a63d 14ff 6b3d 2d8b 50bd
00000040: 0cf4 e0bc 7806 69bd 874c 3f3c 1cd5 c8bb
00000050: 2853 26be a3f7 ecbd 917c 26be 6d01 09be
00000060: 3371 82bd d6bf be3d b584 b93d 67f0 3c3e
00000070: c413 a03d fbd9 2b3e 6b1e 143c 65d2 a9bb
00000080: 46cb 01be b656 18be 1f71 4ebe 6006 5bbe
00000090: ba12 a2be ecf7 bfbe cfa9 0dbe 6c76 e6bd
000000a0: 52e6 ebbd c514 8bbe b262 95be 69a2 c8bd
000000b0: 4ec6 f53c c882 7ebd 08f5 94be 0eca bdbe
000000c0: 8d88 10be df66 2c3e 66a0 7dbd e232 77be
000000d0: 0c13 08be 0619 953d 6558 c53d 40cf c83b
000000e0: 6cc3 23bb a741 33be c8e4 6ebe 2c38 1bbd
000000f0: e3fb 033e 749c 1a3e 3855 9e3c eaef 44bc
00000100: ec5c c3bd 26a7 073d c6c3 e03d 7f76 3e3e
00000110: c8cb 793e 7940 103e 537b 35bd 192b 1fbe
00000120: 33f0 afbd 04dd 3bbd 40d7 16bd 16fa 34be
00000130: 18f4 dabd e514 573e ba6f 573e d0be 183e
00000140: 3b5c aebd 62e6 9dbe 0ffb 2abe d1a5 65bd
00000150: 80a5 72bd abdb 1f3c b817 033d 8625 91bd
00000160: c148 a7bd bd0d 6dbd b1ff 793d 061e fb3d
00000170: 128a 4f3e 87dc 263e eaf0 1d3e d448 cebc
00000180: 299b 88bd 4ca7 9fbc 21a0 7f3d e14d 9d3d
00000190: a154 293c 40c6 eebd b247 a6be 6e63 7dbd
000001a0: 8c2e 1a3c 5e6d 843c 66a3 3e3d 13bd efbd
000001b0: 3a0d 82be 1b04 a2bd a707 e43d 2064 c63d
000001c0: 4608 303e d2dd 743d 4f95 8dbd 0630 98bd
000001d0: 7354 f23d 3697 113e 1265 473e d27c 403e
000001e0: 0506 07bd f41a 4bbd 7775 f9bd be75 ba3c
000001f0: 2b0d 753c 6638 18bd feed db3d 008f a83d
00000200: 3e9e 9dbc 0f9a 7fbd 3f31 35bb cb68 823c
00000210: b140 253d d1e7 683d e6be 60bd f091 bb3d
00000220: 779d 043d a327 e0bc 892b 223d f99e 753d
00000230: e1e5 143d 82a6 2f3c 2f85 cebd 17d1 95bd
00000240: ce5a a13b a18b d5bd 7800 d8bd 1241 f0bd
00000250: 619a fd3c ab21 b6ba 78d0 bdbb e364 ae3c
00000260: e63b 50bb 32eb 68bd 9042 e6bc f8bc 323d
00000270: 4e57 5e3c 7c98 2dbd 7d92 20bd a80d f4bc
00000280: 9a08 d63c 57d8 6d3d 3a99 163d 3bbd a53d
00000290: 8fcd 1c3d 0520 ec3c c22f 54bd 8ee4 8abc
000002a0: 26d7 b7bd 323c 06bd 2ba4 2abe 94c9 0cbe
000002b0: 7ec4 9bbd 7652 f7bb 9af8 f7bd 9b6c aa3c
000002c0: 4968 10be 483e 65be abb7 8dbd a031 a53d
000002d0: f610 a93d d3af 613d bc05 9abe 952a 40be
000002e0: 7792 7abe 594e 3e3e 6198 833e 2827 1b3e
000002f0: d665 a9bd 5550 4cbe a2f6 82bd 8c87 f43d
00000300: 96d2 273e a84b 5a3e 6041 433d fb83 87bd
00000310: 286e 27be eb99 fbbd 0431 bdbc b04d 8fbc
00000320: aa91 83bc a692 0ebc eb25 e6bd 7a04 b6bd
00000330: c442 c1bd dc84 533b 7c69 c83d ed80 9a3c
00000340: eacb 0dbe a245 b0bd 8d0e 383d c489 043e
00000350: e2a1 ed3d 8464 d53d 04f9 fcbc e650 13bd
00000360: f07d f3bc 8e29 aa3d 3833 bc3d 2958 533d
00000370: 2bae 56bd e6d3 7ebd c963 bdbd 2fe0 44bd
00000380: 9a7d afbc 381a a6bd c237 0bbe f09a 6abe
00000390: f99f cfbd b763 d53c f0c7 16bd 787e 953c
000003a0: 1d24 48be 58be 1ebe d29f 0abe cd50 98bd
000003b0: b455 9c3e 6f5e b83e 34f9 993e e424 c03d
000003c0: 8851 9bbd 35db cdbc 8cf8 393e c507 873e
000003d0: 3d6a 5f3e 69c2 a3bd fe45 24be a907 44be
000003e0: 44ff 08be dc4c b4bd 18c3 57bd 1c05 38be
000003f0: b222 2ebd 8ef7 043c 369d 3b3d 5b38 e1bd

bias f4 [20]
0.041290835 -0.12505816 -0.048780326 0.1465446 -0.031205978 0.17070076 -0.12665942 0.03765076
0.011099262 -0.008174633 -0.04709453 -0.065371536 -0.1273952 -0.06960131 -0.01569065 -0.013887117
-0.09625508 0.00973065 -0.023830475 0.029290954
00000000: 9420 293d 3f0f 00be e1cd 47bd ca0f 163e
00000010: aea3 ffbc 2ecc 2e3e 02b3 01be af37 1a3d
00000020: aed9 353c e5ee 05bc 32e6 40bd 83e1 85bd
00000030: e373 02be 228b 8ebd ae89 80bc ca86 63bc
00000040: 6221 c5bd 4e6d 1f3c 2138 c3bc 95f3 ef3c

weight f4 [50, 500]
0.06161146 0.124838986 0.19967324 0.10730092 -0.037848525 0.07975147 0.16422063 0.15988806
0.098869644 -0.028621903 -0.10194095 -0.14922598 -0.14882705 -0.022797428 -0.0397518 -0.12734489
-0.14196365 -0.0668055 0.068616435 -0.078667335 0.07731726 -0.10500211 0.004554835 -0.028026965
-0.14553629 -0.11379728 -0.1178394 -0.082619354 0.0513875 0.047628164 -0.031111147 -0.03188445
0.051673353 0.15172987 0.064388916 -0.07638461 0.051319208 0.091238 0.062476005 -0.023135636
0.02609392 0.008990276 0.020504175 0.0020418046 -0.0697158 0.11757626 -0.022616219 0.06262082
-0.073015206 -0.08297041 0.009512852 -0.05346049 -0.062941074 -0.13901319 -0.084415175 -0.034536798
-0.035708986 -0.08147409 -0.06551319 0.041469026 -0.052575745 -0.059809793 0.02385335 -0.011433433
0.16451879 -0.007146314 0.015056705 0.077275485 -0.11341466 0.048178144 0.12246899 0.07424075
-0.011661937 0.064463384 0.10833077 0.14076734 0.12648168 0.010646445 -0.10108547 -0.13746749
0.064480714 0.10528427 0.08417259 0.0040326556 -0.08749248 -0.11114761 -0.064250246 -0.03600086
-0.067275465 -0.029476244 -0.030820912 -0.03079266 -0.08919444 -0.07304086 -0.03172044 -0.06195783
-0.001969886 -0.011127922 0.025941735 -0.06113298 0.044696283 0.0981657 0.12066892 0.04459528
0.08299497 -0.097913235 -0.08436096 -0.0032176198 -0.03046202 0.063037515 -0.039167117 -0.14199153
-0.07463484 -0.040236227 0.021483915 -0.10504866 -0.02958066 -0.017354408 -0.032530237 0.034140088
0.14722079 0.06309755 0.096057914 0.028304428 -0.022267196 0.10144374 0.16644381 0.023661837
-0.11684483 -0.009487997 0.05872454 0.049331497 0.13746315 -0.028191786 -0.022253122 -0.008637595
-0.07724606 -0.008143939 -0.019066324 0.04689708 0.07060003 -0.1149519 -0.10985648 -0.06454099
0.04380309 -0.08273775 -0.123768926 -0.17862824 -0.04342372 0.04176806 -0.0728074 0.058258686
0.038567133 0.067992315 -0.028386595 0.024848673 -0.038233466 0.009125281 0.05736153 0.023425298
-0.09037711 0.05765759 0.10753933 0.053311653 -0.0073396177 -0.012987055 0.016301151 0.057870936
0.018075773 0.014458917 -0.004228683 -0.037059356 -0.0034422302 0.035857975 0.07268443 -0.021222197
0.035804424 0.13310626 0.01841222 -0.06047061 0.09286644 -0.03713139 0.06220384 0.013158741
-0.004092401 0.004035406 -0.07094326 -0.07122457 -0.0021676566 0.03519071 -0.09611171 0.017843168
-0.08455679 0.0044696745 -0.024206426 -0.046378918 -0.014620094 0.007396277 -0.0530954 -0.07590265
-0.12931019 -0.19930413 -0.14829214 0.008956683 -0.035714947 -0.09679949 0.06330457 -0.035896096
0.07428999 0.09408803 0.022689888 0.101036504 0.057097647 0.052646182 -0.025749465 0.04728913
0.12205113 -0.048075683 0.024231894 -0.011838814 -0.116311006 -0.17862643 -0.12465256 -0.045197766
0.07727326 0.049435798 -0.010556762 0.0044599427 0.029855467 0.09004604 -0.034387864 0.06699725
0.0035509048 0.08493831 0.03516142 -0.00879175 -0.049836848 0.113967896 0.10417816 0.020950729
-0.003489683 -0.09497121 -0.07092498 0.058599774 0.003654782 -0.022101829 -0.019849595 -0.0051432936
-0.058329698 -0.11617158 0.0923998 0.12954165 0.0537963 0.08541093 0.07066856 0.022277923
00000000: 4c5c 7c3d 95ab ff3d 2477 4c3e 96c0 db3d
00000010: 0e07 1bbd bd54 a33d 7429 283e b2b9 233e
00000020: 2b7c ca3d 7b78 eabc 6bc6 d0bd b2ce 18be
00000030: 1e66 18be acc1 babc c9d2 22bd b366 02be
00000040: eb5e 11be 52d1 88bd c686 8c3d 571c a1bd
00000050: 8358 9e3d 590b d7bd ba40 953b ce98 e5bc
00000060: 7707 15be 8c0e e9bd c955 f1bd 5634 a9bd
00000070: b37b 523d c015 433d cedc febc 4599 02bd
00000080: 70a7 533d 135f 1b3e 56de 833d 896f 9cbd
00000090: 1734 523d fdda ba3d d7e6 7f3d f286 bdbc
000000a0: ebc2 d53c f34b 133c 5ff8 a73c cccf 053b
000000b0: 28c7 8ebd d2cb f03d a645 b9bc 583f 803d
000000c0: ff88 95bd 64ec a9bd cbdb 1b3c 63f9 5abd
000000d0: 40e7 80bd 7959 0ebe dde1 acbd 7576 0dbd
000000e0: 9643 12bd e3db a6bd c82b 86bd 6ddb 293d
000000f0: aa59 57bd 1dfb 74bd 1a68 c33c 4b53 3bbc
00000100: 9d77 283e a02b eabb 66b0 763c 9c42 9e3d
00000110: f245 e8bd 7256 453d 06d1 fa3d 890b 983d
00000120: b611 3fbc 6105 843d 86dc dd3d 5025 103e
00000130: 6a84 013e 6d6e 2e3c e605 cfbd 47c4 0cbe
00000140: 770e 843d 489f d73d ae62 ac3d 5e24 843b
00000150: 422f b3bd 5ca1 e3bd a295 83bd a375 13bd
00000160: b8c7 89bd 2a78 f1bc 237c fcbc e340 fcbc
00000170: 93ab b6bd 7296 95bd 4bed 01bd 7ec7 7dbd
00000180: 3419 01bb e351 36bc c383 d43c 9366 7abd
00000190: 7313 373d 190b c93d 4421 f73d 8aa9 363d
000001a0: 44f9 a93d bc86 c8bd 70c5 acbd b4de 52bb
000001b0: 7c8b f9bc d019 813d b36d 20bd 3a66 11be
000001c0: 27da 98bd bece 24bd 09ff af3c c023 d7bd
000001d0: 2453 f2bc d52a 8ebc 6d3e 05bd 7ad6 0b3d
000001e0: 0cc1 163e 4a39 813d 03ba c43d b0de e73c
000001f0: b269 b6bc bcc1 cf3d 3f70 2a3e 78d6 c13c
00000200: 584c efbd 8b73 1bbc 2589 703d d30f 4a3d
00000210: 24c3 0c3e 76f2 e6bc 2e4c b6bc b384 0dbc
00000220: 2f33 9ebd 286e 05bc fb30 9cbc 2717 403d
00000230: c096 903d e76b ebbd 6ffc e0bd 112e 84bd
00000240: de6a 333d 6972 a9bd 907a fdbd 52ea 36be
00000250: 12dd 31bd fc14 2b3d 0c1c 95bd a9a0 6e3d
00000260: 92f8 1d3d 8e3f 8b3d 018b e8bc 728f cb3c
00000270: b29a 1cbd 3482 153c ecf3 6a3d 69e6 bf3c
00000280: a217 b9bd 5d2a 6c3d 953d dc3d 525d 5a3d
00000290: 2d81 f0bb a8c7 54bc fe89 853c 130a 6d3d
000002a0: a513 943c 18e5 6c3c c490 8abb 8dcb 17bd
000002b0: 0a97 61bb d0df 123d 93db 943d 2cda adbc
000002c0: a9a7 123d 024d 083e 39d5 963c 08b0 77bd
000002d0: c330 be3d 1617 18bd 74c9 7e3d c397 573c
000002e0: 8c19 86bb 703b 843b b34a 91bd 30de 91bd
000002f0: 3e0f 0ebb 2224 103d 37d6 c4bd d62b 923c
00000300: 1c2c adbd 5976 923b 8e4c c6bc d2f7 3dbd
00000310: 1e89 6fbc 785c f23b 907a 59bd d972 9bbd
00000320: e469 04be 6216 4cbe e5d9 17be 0dbf 123c
00000330: d649 12bd d03e c6bd d4a5 813d c907 13bd
00000340: 5a25 983d 3ab1 c03d 25e0 b93c 3aec ce3d
00000350: 39df 693d 86a3 573d 8bf0 d2bc 3fb2 413d
00000360: f1f5 f93d 02eb 44bd f781 c63c 96f7 41bc
00000370: 7734 eebd d9e9 36be d749 ffbd 4b21 39bd
00000380: 7141 9e3d 317d 4a3d 45f6 2cbc b624 923b
00000390: 7493 f43c 0f6a b83d 4ada 0cbd db35 893d
000003a0: 4cb6 683b 23f4 ad3d 6c05 103d 460b 10bc
000003b0: b921 4cbd 0068 e93d 5c5b d53d dda0 ab3c
000003c0: 2ab3 64bb 4480 c2bd 1e41 91bd 5106 703d
000003d0: 1185 6f3b e50e b5bc 9e9b a2bc 1389 a8bb
000003e0: 1feb 6ebd 5eeb edbd 1b3c bd3d 91a6 043e
000003f0: 8259 5c3d edeb ae3d aeba 903d 3180 b63c

bias f4 [50]
0.038111806 0.021483166 -0.034759495 0.1056972 -0.04508103 0.013669709 -0.00011357377 -0.040392734
-0.041606955 0.028706456 0.054314982 0.027405066 -0.06326474 0.057980627 -0.0523038 0.03123406
0.07940495 -0.031316742 -0.028923335 -0.026459385 -0.03793013 0.057248455 0.002524923 -0.029377934
-0.029890744 -0.041594118 0.026380902 -0.059325237 -0.0052862535 0.030535923 0.035664156 -0.012296565
0.0069215945 0.07247473 0.064468406 0.045102824 0.030987473 -0.05471523 0.0691776 -0.018130798
0.03890195 0.031804167 -0.006927421 0.10295465 0.01113502 0.027049487 0.07999766 -0.009737411
0.031478886 -0.027467139
00000000: 201b 1c3d 77fd af3c f95f 0ebd c677 d83d
00000010: e3a6 38bd eaf6 5f3c 742e eeb8 da72 25bd
00000020: 0e6c 2abd cd29 eb3c 6379 5e3d 9780 e03c
00000030: f290 81bd 187d 6d3d 823c 56bd 92de ff3c
00000040: 109f a23d fc45 00bd a1f0 ecbc 5ac1 d8bc
00000050: a05c 1bbd 5b7d 6a3d 2e79 253b fea9 f0bc
00000060: 6fdd f4bc 985e 2abd c31c d83c 05ff 72bd
00000070: 4f38 adbb 7926 fa3c 9414 123d 8877 49bc
00000080: 8bce e23b a26d 943d 0308 843d bdbd 383d
00000090: 71d9 fd3c 141d 60bd fcac 8d3d 0a87 94bc
000000a0: a757 1f3d 1645 023d 6bff e2bb e3d9 d23d
000000b0: a96f 363c e396 dd3c d0d5 a33d a989 1fbc
000000c0: 01f0 003d c402 e1bc

weight f4 [10, 50]
0.17229061 0.12027216 0.013789908 0.037733488 0.029889256 -0.015018444 0.0143393995 0.0061115455
-0.17447466 -0.1122376 0.14162219 0.04212553 0.03492699 -0.10814702 -0.13477756 0.031120008
0.11926957 0.033184167 -0.13564381 -0.17292799 0.08428649 -0.2164097 0.13673602 -0.14239052
-0.043048166 -0.30342284 0.01476554 -0.09972908 -0.07896043 -0.257626 0.16571428 0.122704975
0.1720402 0.043754123 0.07265802 -0.052707475 0.13644305 -0.0064965435 0.028447362 0.06299542
0.043728683 -0.15435487 0.0201626 -0.20626971 -0.00924846 -0.12326825 -0.25002626 -0.0835738
0.12060828 -0.123906046 -0.06605681 -0.11465105 -0.09705708 -0.305558 0.2153921 0.14984736
0.1082357 0.07827436 0.00022907372 -0.040228203 0.053738464 -0.2850948 0.05332629 0.023960494
-0.09762642 0.2191358 0.087219745 0.029530719 0.11253651 -0.13595293 -0.047896456 0.17814977
0.10807107 -0.029415831 0.034341205 -0.08718263 0.08275065 0.13916332 -0.11593221 -0.010229772
-0.028719354 0.08557245 -0.056889597 0.19362889 -0.04163206 0.14822128 -0.08686733 0.10515307
-0.21988237 -0.0013388251 -0.09478758 -0.25050795 0.13525403 0.14416926 0.026336579 -0.10749055
-0.04650718 0.11127429 -0.25177896 -0.07329795 0.054804094 -0.046217382 0.10465949 -0.009480969
-0.043894667 0.056753457 -0.13710386 0.026613966 0.14735276 -0.023434982 -0.2879716 -0.15078494
0.13893875 0.107852034 0.108769625 0.006932977 -0.18257912 0.10118796 0.15185034 -0.20021424
0.044493116 0.08279457 0.16471785 -0.1660552 -0.004574713 -0.23212938 -0.041630764 0.1633165
-0.15177688 -0.059185 -0.1560681 0.048589315 -0.1933902 -0.1851544 0.19878657 -0.059655808
0.11904164 -0.05651048 0.16326728 0.10706051 0.15851437 0.05823211 0.030683167 -0.05462179
-0.13240539 -0.17599286 -0.11913472 -0.020291334 0.06641852 -0.15261556 0.068623014 0.045306988
-0.04833359 0.049922887 -0.2080715 -0.2008464 0.18758456 0.06708284 -0.06986971 0.06777621
-0.22552015 0.13662902 0.045596607 0.057332367 -0.17808695 -0.0056653176 -0.27028286 -0.010316187
0.19100365 0.093248695 -0.039543714 -0.3076465 0.16775426 -0.26772666 0.08052839 0.15417475
0.06339568 0.11400956 -0.08108961 0.074464545 0.051636074 -0.13357556 -0.09272767 -0.19909988
-0.17038581 0.039362106 -0.012159129 0.044034272 0.039138447 -0.0641782 -0.11222934 -0.098898776
0.064458616 -0.042647686 -0.14015512 0.09668816 -0.023762835 0.2431409 0.004732536 -0.22373658
-0.39810786 0.16722721 -0.09265273 -0.11480229 0.2176705 0.19649492 -0.25880215 0.022024099
-0.0072708204 -0.10416374 0.010025682 -0.11481686 -0.14231476 0.028086465 0.13490014 -0.040796217
-0.10399811 -0.08281155 -0.09149419 0.13392675 0.054248028 -0.024391858 -0.13515468 0.08213538
0.01468243 0.10718666 0.12103746 -0.06408518 0.07202412 0.040971912 -0.19163086 0.093010455
0.18157606 0.100836195 -0.18960777 0.028093642 -0.25038692 0.042454198 0.05359313 0.11302687
0.08684728 0.048286956 0.10383706 -0.005244437 0.006312362 -0.007104182 -0.14095272 0.05271158
0.01482771 0.23575306 -0.016356166 -0.110182635 -0.08982098 0.1179013 -0.04006808 -0.13319418
00000000: f36c 303e 4051 f63d 11ef 613c 6e8e 1a3d
00000010: 50da f43c eb0f 76bc cdef 6a3c 5c43 c83b
00000020: 7ca9 32be d4dc e5bd 6805 113e d28b 2c3d
00000030: 9a0f 0f3d 2f7c ddbd 2103 0abe 63ef fe3c
00000040: 9b43 f43d 1fec 073d 36e6 0abe 0914 31be
00000050: 659e ac3d 819a 5dbe 8704 0c3e d2ce 11be
00000060: 4653 30bd 3d5a 9bbe 2aeb 713c c33e ccbd
00000070: 02b6 a1bd 8ee7 83be 01b1 293e bf4c fb3d
00000080: 4e2b 303e 8637 333d bacd 943d cbe3 57bd
00000090: bab7 0b3e f5e0 d4bb 710a e93c be03 813d
000000a0: d91c 333d 340f 1ebe 092c a53c 5e38 53be
000000b0: da86 17bc 1074 fcbd 7103 80be be28 abbd
000000c0: 7901 f73d 74c2 fdbd cb48 87bd 2bce eabd
000000d0: ddc5 c6bd 1972 9cbe bf8f 5c3e 9671 193e
000000e0: aeaa dd3d 4f4e a03d 8233 7039 54c6 24bd
000000f0: dd1c 5c3d f2f7 91be ab6c 5a3d cc48 c43c
00000100: 5cf0 c7bd 2365 603e 44a0 b23d 68ea f13c
00000110: 8b79 e63d 3f37 0bbe 132f 44bd e56c 363e
00000120: 5d54 dd3d 78f9 f0bc 5da9 0c3d cf8c b2bd
00000130: 2c79 a93d d480 0e3e de6d edbd c69a 27bc
00000140: da44 ebbc 9c40 af3d 1105 69bd a746 463e
00000150: 6186 2abd 52c7 173e 80e7 b1bd 7e5a d73d
00000160: d828 61be 847b afba fe1f c2bd 9442 80be
00000170: 0880 0a3e 1ba1 133e cfbf d73c 0124 dcbd
00000180: 507e 3ebd c6e3 e33d 2ce9 80be 3c1d 96bd
00000190: 427a 603d 704e 3dbd b757 d63d 1156 1bbc
000001a0: e5ca 33bd 5076 683d f464 0cbe 8805 da3c
000001b0: a4e3 163e b8fa bfbc 0371 93be 5e67 1abe
000001c0: f645 0e3e 87e1 dc3d 9cc2 de3d 072e e33b
000001d0: 05f6 3abe a23b cf3d a87e 1b3e f604 4dbe
000001e0: 6a3e 363d 3390 a93d ccab 283e 600a 2abe
000001f0: 79e7 95bb 53b3 6dbe 0585 2abd 713c 273e
00000200: 666b 1bbe f86b 72bd 51d0 1fbe 9705 473d
00000210: 1508 46be 1d99 3dbe b58e 4b3e a659 74bd
00000220: 1acc f33d 8877 67bd 8a2f 273e 8a42 db3d
00000230: 9751 223e cb84 6e3d 445b fb3c 19bb 5fbd
00000240: 4795 07be 7937 34be e7fc f3bd 033a a6bc
00000250: 6f06 883d 4147 1cbe 398a 8c3d d293 393d
00000260: 71f9 45bd f17b 4c3d b210 55be aeaa 4dbe
00000270: 2b16 403e ba62 893d da17 8fbd 41ce 8a3d
00000280: c1ee 66be 7ae8 0b3e 82c3 3a3d 58d5 6a3d
00000290: 6d5c 36be 21a4 b9bb 8462 8abe 3905 29bc
000002a0: 7696 433e 2cf9 be3d 97f8 21bd d883 9dbe
000002b0: c6c7 2b3e 7813 89be 12ec a43d fcdf 1d3e
000002c0: 98d5 813d d87d e93d 4f12 a6bd de80 983d
000002d0: 5980 533d 08c8 08be 01e8 bdbd d7e0 4bbe
000002e0: 9e79 2ebe 293a 213d 1537 47bc 485d 343d
000002f0: a34f 203d dc6f 83bd 7fd8 e5bd 718b cabd
00000300: e102 843d 57af 2ebd d384 0fbe 7104 c63d
00000310: 47aa c2bc eef9 783e 6413 9b3b 341b 65be
00000320: cbd4 cbbe 9c3d 2b3e b7c0 bdbd 771d ebbd
00000330: 04e5 5e3e f735 493e b781 84be e26b b43c
00000340: 1040 eebb cd53 d5bd c242 243c 1a25 ebbd
00000350: f6ba 11be 9615 e63c 4323 0a3e ef19 27bd
00000360: f6fc d4bd 1a99 a9bd 4e61 bbbd 1824 093e
00000370: 2e33 5e3d 6fd1 c7bc fd65 0abe 9836 a83d
00000380: 938e 703c ae84 db3d 7de2 f73d 173f 83bd
00000390: 6281 933d 2ad2 273d e13a 44be 447c be3d
000003a0: 13ef 393e 3583 ce3d 8a28 42be a324 e63c
000003b0: b732 80be 74e4 2d3d 7884 5b3d a27a e73d
000003c0: fddc b13d 8bc8 453d 86a8 d43d 87d9 abbb
000003d0: eed7 ce3b 33ca e8bb e955 10be 19e8 573d
000003e0: ecef 723c 4069 713e 5efd 85bc 6fa7 e1bd
000003f0: 10f4 b7bd 3d76 f13d 6d1e 24bd 0e64 08be

bias f4 [10]
-0.08719163 0.06222089 0.011980581 0.07250529 0.09502233 -0.064811446 -0.0037651383 0.012067565
-0.05039 0.00060141855
00000000: 8691 b2bd 55db 7e3d 334a 443c a77d 943d
00000010: 119b c23d ddbb 84bd 8ac0 76bb 09b7 453c
00000020: bf65 4ebd 84a8 1d3a
