inference/mnist_model.pth (torch, 126320 bytes, 8 tensors)

conv1.weight f4 [10, 1, 5, 5]
00000000: 5f70 ab3e 5c95 673e b04f a6be d3c1 14be
00000010: 68c4 98be f520 4c3d 0377 853e 2e92 f23d
00000020: 8da8 403d a9e4 583e f1eb 41be 033c 093f
00000030: 0c4d 07be 2210 223d 9346 1fbd 3a04 993c
00000040: 4e57 b13e dd86 be3d 6ae8 76bd 4ee0 18be
00000050: d453 2dbe 0441 123b 69a7 293e 35cf d33d
00000060: ae70 99be 7b26 8b3b 2f33 71be 4e1b 78be
00000070: 7a8a c43d ac21 613d 4f50 23bc 547d 2cbf
00000080: aace 9abe b678 a63e e0db 883e d442 4fbe
00000090: f393 2abf 0ea2 27be f17a 1c3f 9515 d03e
000000a0: fd98 45bf 5a2a c3be 4d1c 5abd 953c f23e
000000b0: 646e bb3d 70ad 93be 8ed7 6ebe 660c 7b3c
000000c0: f60b 683e d1b5 0b3d f6c2 3abe 25c6 b7bd
000000d0: 3672 57be b16c 33be f6d5 8abe e273 5f3e
000000e0: 4cf4 3b3f f985 763e fb1b 6abd 987e 813d
000000f0: a453 a5be c87d ca3d 63d0 cfbe 4a1b f43d
00000100: bf3a 45be 35f0 8cbf 9aa0 babe 6878 cf3d
00000110: 5157 f73e dbca eb3d 11c8 1c3e f60f d63d
00000120: 1506 ae3e 4b2d 3fbb 3185 03bf 836b edbd
00000130: 2817 b0bd 0543 713d 11b7 00be c2c2 413d
00000140: b932 b3be 81a5 b3be e4e4 d9bd 19a0 5e3e
00000150: a81b a73d 1e74 2dbf 9ec4 afbd 5a6e b03a
00000160: 265e 9fbd 6918 24be d872 bb3c 99bd 2d3e
00000170: 6de8 7c3c 1ed4 b03d da7b 073e 7edd 043f
00000180: a44c d63e 3e99 5b3e e550 5c3e 622a c53d
00000190: fc14 cebe 70ac b5be eafb 1b3d 0961 3cbd
000001a0: 2067 d2bc 15d1 9a3e e900 b63d d2d2 9a3e
000001b0: e237 e63e 4f34 473e a15a 7f3e 22d6 4b3e
000001c0: 74f8 1ebe 1e65 1b3e 377e 7b3d 1649 03bf
000001d0: 5411 383e 5306 3cbd fa6f a3bc 73db 593e
000001e0: 3161 0abf 03c6 2fbe 6360 a6be f2d1 39be
000001f0: c79b 33be f4a4 2b3e c577 b3be b9cc cc3d
00000200: f6d2 993e 2e84 ccbe 5ed2 3ebe 38dc 03bf
00000210: 11df 093f 0bc8 3bbe 9a89 09bf 08fb b03e
00000220: f8a9 993e 972f e23e 2d23 19be 16df 86bd
00000230: eeb7 9b3d b2f1 363e 062e af3e e78a a4be
00000240: 67b7 3bbd 1126 8fbf 219a 9bbe 776b a63e
00000250: d196 093e c571 40be 1dc2 afbc d996 34bd
00000260: 9df9 4cba 73b8 07be 0722 003f 8a0d 43bd
00000270: a606 193d 72d8 fcbe fa49 24bf 7b80 013e
00000280: 23b5 a63e b069 d33e a3bb a0be 6f1d 93bf
00000290: 6f02 3bbf f22e a7bc dc08 333f 2026 193f
000002a0: affc 7a3d 7d4a 99be ec1e 99bd 4e38 eebc
000002b0: 1d62 b93e a6a5 233f d8e2 603e ff0c 763e
000002c0: 32d1 f63d 2dc3 e43b 8b8f 223e 6c21 a53e
000002d0: c024 2dbe 8a9a 343d 6b4d 033e 62c6 403e
000002e0: cbca 353e fa9d a43e 2594 173e d87a 293e
000002f0: f47d 843e 20b8 8a3e 1b89 753e 6b3f 28be
00000300: b127 2b3d aa5d 14be 9715 83be b7c3 c0be
00000310: 0cf8 06bf 0fa1 cabe 1887 72bf 31f3 b7be
00000320: 7ad4 04be b56e 5abe 0e35 b33e 32af f63e
00000330: 50fa 553e 9d58 423d 35d6 e73e d725 bc3e
00000340: 04a9 69bd a732 53be 8973 44be 528b 933e
00000350: 997e bf3d 5d60 9fbc 5686 22bf c82e 253e
00000360: 904a 9f3c d834 fdbe 7d2f 25bf 365c cdbe
00000370: 1ad3 47be b6c0 98be ebb3 90be 1ea4 26be
00000380: b5f7 cc3e 6e34 acbd 1996 b9be 2afa b3bc
00000390: 7cbe 6f3d e0dc 5c3d db85 553d e733 05be
000003a0: 3d43 033f 662c ba3e ccf7 72be c75b 6abc
000003b0: c799 aa3c 99ee fd3e e470 1ebd c535 0abf
000003c0: 724e 5f3e 0c66 cd3d 47d8 893e 68af d6be
000003d0: 371d bcbe 4251 4c3e a23a a0bd 6e19 63be
000003e0: fd36 90be 3b55 aa3e
0.3348417 0.2261557 -0.32482672 -0.14527063 -0.29837346 0.049836118 0.2606736 0.11844288
0.047035743 0.21180977 -0.18937661 0.53607196 -0.13212985 0.039566167 -0.038885664 0.018678773
0.3463692 0.09303067 -0.06028024 -0.14929315 -0.16926509 0.0022316584 0.16567768 0.10342256
-0.2996878 0.0042465306 -0.23554681 -0.24229166 0.09596725 0.054963753 -0.0099678775 -0.67378736
-0.30235797 0.3251397 0.2673025 -0.20240337 -0.66632 -0.16370413 0.61125094 0.40641466
-0.77186567 -0.3811825 -0.053249646 0.47311845 0.09151915 -0.2884326 -0.23324415 0.01532278
0.22660813 0.03410894 -0.18238434 -0.0897334 -0.21039662 -0.17521931 -0.27116364 0.2182155
0.7341964 0.24074544 -0.05715559 0.06322974 -0.32290375 0.09887272 -0.40588674 0.119192675
-0.19260691 -1.1010805 -0.36450654 0.101303875 0.48308805 0.11513301 0.15310694 0.10452263
0.33989015 -0.0029171284 -0.5137511 -0.11592772 -0.08598167 0.058901805 -0.12569834 0.047304876
-0.34999636 -0.35087207 -0.106393605 0.2174076 0.08159572 -0.67755306 -0.085824236 0.0013460622
-0.07781629 -0.16024937 0.02288191 0.16966857 0.015436274 0.08634208 0.1323084 0.5190047
0.41855347 0.21445176 0.21515234 0.096272245 -0.40250385 -0.35483122 0.03808204 -0.045990977
-0.02568394 0.30237642 0.08886892 0.30238968 0.4496451 0.19453548 0.24936916 0.19905904
-0.15524465 0.15175292 0.061399665 -0.51283395 0.1797536 -0.04590447 -0.019950856 0.2127512
-0.5405455 -0.17165379 -0.32495412 -0.18146494 -0.17539893 0.16762143 -0.35052314 0.09999985
0.30043763 -0.39944595 -0.18634936 -0.515079 0.53856 -0.18338029 -0.5372559 0.34566522
0.30012488 0.44176933 -0.14954825 -0.06585519 0.07603441 0.17865637 0.342148 -0.32137224
-0.045829203 -1.1183492 -0.3039103 0.32503864 0.13436438 -0.187934 -0.021454865 -0.044089172
-0.00078191777 -0.13253956 0.5005192 -0.047620334 0.037359856 -0.49383885 -0.6417538 0.12646668
0.3256007 0.4129157 -0.31393155 -1.1493357 -0.7305059 -0.020408127 0.69935393 0.598238
0.061276134 -0.29939643 -0.07476601 -0.029079583 0.36207667 0.63924634 0.21961534 0.24028395
0.120516196 0.0069812746 0.1587507 0.3225206 -0.1690855 0.044092692 0.12822501 0.18825677
0.1775314 0.32151777 0.14802606 0.16550767 0.25877345 0.270936 0.23978083 -0.16430442
0.0417859 -0.14488855 -0.2560241 -0.3764932 -0.5272224 -0.39576003 -0.94737387 -0.35927728
-0.12971678 -0.21331294 0.35001415 0.48180538 0.20896268 0.04744779 0.45280614 0.3674762
-0.05704595 -0.20624791 -0.19184698 0.2881723 0.093503185 -0.01945513 -0.6348623 0.16131127
0.019444734 -0.4945438 -0.64525586 -0.40109414 -0.19514123 -0.29834527 -0.28262267 -0.16273543
0.40032735 -0.08408438 -0.36247328 -0.021969873 0.05853127 0.05392158 0.052129608 -0.1300808
0.5127447 0.36361998 -0.2372734 -0.014304108 0.02082528 0.49596098 -0.03868188 -0.53988296
0.21807268 0.100292295 0.2692282 -0.419307 -0.3674104 0.19952872 -0.07823683 -0.2217767
-0.28166953 0.3326815

conv1.bias f4 [10]
00000000: e182 34bf fde1 f0bd 9264 2ebe 51b3 8ebe
00000010: c259 2fbd 71b8 3bbe 86ac 33be 38d3 d93d
00000020: bd2c 053e 9eeb 37be
-0.70512205 -0.11761854 -0.17030552 -0.27871183 -0.04281021 -0.18332078 -0.17546281 0.1063599
0.13005348 -0.17960975

conv2.weight f4 [20, 10, 5, 5]
00000000: ca4a e2bd 0cb2 5abe 5239 a03e 4b93 1b3f
00000010: c357 d0be b5bb 1cbe 3b03 823d d531 7d3e
00000020: a522 a33e 355c 86be d88b 30bf c1bc abbd
00000030: bc63 fe3d 3763 043e 6a26 d7be a046 a0be
00000040: 01d6 ed3d e29a 8e3c 72df c9bd ccdb fdbc
00000050: 8041 27be 5f08 493e 18b1 623d d726 b5be
00000060: 84ee 41bd 42f3 59be 17ca acbd d15a b4bc
00000070: ced7 6cbd 0367 03bd 020d 8bbe d80b 0a3d
00000080: 5a17 d63e 48af ddbe df68 67be 1e2e d83d
00000090: 4441 3f3e a0ae 6d3e 8893 98be f6ea ac3e
000000a0: 66d1 d2bd d022 c3be 8c1e fabe 22a1 293e
000000b0: 0a27 503e dd4b f1bc d551 efbe e227 4abe
000000c0: 16c7 673d 5b0f 15be 3f7a 843d 47cb cebd
000000d0: 2886 643d 471b 7e3e a000 11bf f2d4 b63e
000000e0: ade3 dc3e b9a3 a43d 0cc9 2ebf c418 80be
000000f0: 57f7 e93d 1e39 4fbe 2bfd 60bf 10a4 4fbe
00000100: 8500 d93d 9fc6 debe 6447 413e e135 31be
00000110: 8475 77bd cd44 8ebe 5779 c03d af40 4d3e
00000120: 0eb0 50be 9a49 a3bc 4327 9dbe 722c 69be
00000130: 3ff5 3c3e 9d39 023e d0ef d0be 51b3 8dbe
00000140: e510 c0bd aa03 173e 773f e4bd 8bb3 02bf
00000150: d300 89be f5ee 693e c95f 533e 1ccd 12bf
00000160: d7ab 98bd c436 cb3c a90f d5bd c3cd 81be
00000170: 66ba 07bf 6ebb 1cbe caaf 79be e613 78bf
00000180: e247 3abf 058d 32be 4f43 a53d 85be cf3d
00000190: 72a4 11bd 0436 f13d 6ec5 523e a265 cbbe
000001a0: 8379 8fbe 2323 74bc 3f78 02bc 1655 b33d
000001b0: 3e3c f1bd 8139 3fbe 1799 34be dffa 393e
000001c0: a132 a93d 0645 92be a5d5 d4be dcac 2d3e
000001d0: 490c 5ebd 2b47 093d 7018 9cbe 9d32 313e
000001e0: 8b01 723e cc04 64be 0ec2 76be 8235 54be
000001f0: bc5c abbd b77f 90be 7957 b13e f480 ad3d
00000200: 295b 19be 29d4 54be 67a5 4c3e 122d 963e
00000210: 03fd 8c3d 2b70 eb3c f040 fcbc c0f0 21bf
00000220: bc60 05bf 7fb0 ec3c bef1 313e 7ea2 bfbe
00000230: da08 8e3d 9374 623e 1514 afbc 9653 813e
00000240: 4c2f 1d3e c2bc 4dbd 7e1d 9e3e acdd 813d
00000250: 571b 43bd c233 683e ebfa d63e a083 a43e
00000260: 67af 1f3d 65a9 273f 8192 1c3d 2379 9cbe
00000270: 5151 97be fd26 3bbd a122 5fbc 59cb fabd
00000280: d01b 4bbf deab 01bf 6777 d03d 24c3 11bd
00000290: 07a0 a3bc 217a d6be 36c7 903d e8bb 96bd
000002a0: 3613 9fbb 1df5 55be 3ddc 93be fc00 623e
000002b0: 8bd9 4b3e 594f b43e 0028 033f 0d5e 883d
000002c0: 933b c6be 6ad0 2fbf a43f d1be 6d8b 4ebd
000002d0: 53d1 e6be c894 f6be 3cd1 a63c b14d f1bc
000002e0: de5b 8fbd d879 d2be d790 733e 1c07 a33e
000002f0: 2c01 91bc 1079 5ebe 489d 283e ccfe f23e
00000300: 25af 703d 0641 c7bd cc33 393a 4da6 9b3e
00000310: 93cb 8ebe b2ba 3fbd 1eb4 31bd e10a 8cbd
00000320: a3b1 90bd e8cc 8ebe de84 f6be e057 053d
00000330: 8d77 9b3b 8837 d3be e896 08bf 18d3 81bc
00000340: 5c7e 433e d5a9 a8be cd54 36bf eb50 913d
00000350: db4e c23e 68b8 cb3d 8e5f d5be 6feb 993d
00000360: f0ae 053f 7fc8 a5bd 02df f7be 7e9f 55bd
00000370: a582 6e3e 2d9a 65be 4a57 473e 5fbb 8bbc
00000380: 8b2d 6fbe 49a5 97bd 71bf c4be 203a 32bc
00000390: a0d9 8d3e 1a4a 8bbe 4db9 27bf fe73 88be
000003a0: 2c9b 883e fc27 353e 8a18 00bf b9dd a83d
000003b0: af6b 9a3e 2e13 953e 3a73 58be 2ec0 abbe
000003c0: 8650 45bc 8b44 343e 133d 65be ecb6 c7be
000003d0: 8598 3abe c367 18be 9ecb abbc 643c a8be
000003e0: fc64 1fbf b024 ddbe 5e82 0e3f b99e 8c3e
000003f0: b949 c4bd 772a c5be 25db a8bd 3a8e 373e
-0.11049421 -0.21356982 0.31293732 0.60771626 -0.40691957 -0.1530598 0.063482724 0.2472604
0.3186237 -0.26242223 -0.68963385 -0.08385611 0.124213666 0.12928472 -0.42021495 -0.31303883
0.11613084 0.017407838 -0.09857072 -0.030988596 -0.1633358 0.196321 0.05534467 -0.35381195
-0.047346607 -0.21284202 -0.08436983 -0.02201596 -0.057822995 -0.03208066 -0.27158362 0.0337027
0.4181469 -0.4329779 -0.22598599 0.10555671 0.1867724 0.23211145 -0.29800057 0.3377301
-0.10293846 -0.38112497 -0.4885143 0.16565374 0.20327392 -0.02945512 -0.4674212 -0.19741777
0.056586348 -0.14556639 0.06468629 -0.10097366 0.055792004 0.24815093 -0.5664158 0.3570934
0.43142453 0.0803904 -0.68275523 -0.25018895 0.114241295 -0.20236632 -0.87886304 -0.20277429
0.10595802 -0.4351091 0.1887489 -0.1730571 -0.060414806 -0.27786866 0.09398144 0.20044206
-0.2037966 -0.019932557 -0.30694017 -0.22770861 0.18452929 0.1271729 -0.40807962 -0.2767587
-0.093782224 0.14747491 -0.111449175 -0.5105521 -0.2675844 0.22845061 0.20642008 -0.5734422
-0.07454651 0.024806388 -0.104033776 -0.25352296 -0.53018796 -0.15305874 -0.24383464 -0.9690536
-0.72765934 -0.17436607 0.08069479 0.101437606 -0.035557218 0.11777881 0.20583126 -0.39725977
-0.28022394 -0.014900955 -0.007963239 0.08756463 -0.117790684 -0.1867428 -0.17636524 0.18162106
0.0826161 -0.28568286 -0.41569248 0.16960472 -0.054210935 0.033515137 -0.30487394 0.17304464
0.23633401 -0.22267455 -0.24097463 -0.20723537 -0.08367297 -0.2822244 0.3463705 0.084718615
-0.14976181 -0.20784058 0.19984971 0.2933126 0.06884196 0.02874001 -0.030792683 -0.6325798
-0.5210073 0.028892754 0.17377374 -0.3742866 0.06935282 0.22114782 -0.02137188 0.25259084
0.15350074 -0.05022884 0.30881876 0.06341109 -0.047633495 0.22675994 0.4198831 0.32131672
0.038985636 0.6549285 0.038225655 -0.3056117 -0.29554227 -0.04569148 -0.013619096 -0.12245817
-0.79339314 -0.50652874 0.10179024 -0.03558649 -0.019973768 -0.41890052 0.070692465 -0.07360059
-0.004854585 -0.20894285 -0.28878966 0.22070688 0.19907205 0.35216787 0.5123291 0.06658564
-0.38717327 -0.6867739 -0.40868866 -0.050425936 -0.45081577 -0.48160386 0.020363443 -0.029455991
-0.06999944 -0.41108584 0.23785721 0.31841362 -0.017700754 -0.21725869 0.16466248 0.4746002
0.05876078 -0.09729199 0.0007064908 0.30400315 -0.2788969 -0.046808906 -0.043384664 -0.068380125
-0.070651315 -0.27890706 -0.48148245 0.032554507 0.004744476 -0.41253304 -0.53355265 -0.015847728
0.19091171 -0.32942072 -0.71223146 0.07095512 0.37950787 0.09947282 -0.41674465 0.075156085
0.5222006 -0.08094882 -0.4841233 -0.052154057 0.23292024 -0.22422095 0.19466892 -0.017057119
-0.23357217 -0.074045725 -0.38427308 -0.010878116 0.27705097 -0.27204973 -0.6551712 -0.26650995
0.26680887 0.17691034 -0.50037444 0.08245415 0.3016028 0.29116195 -0.21137705 -0.3354506
-0.012043124 0.17604272 -0.22386579 -0.39006746 -0.18222244 -0.14883332 -0.020971116 -0.32858574
-0.62263465 -0.43192053 0.55667675 0.27464846 -0.09584374 -0.3850896 -0.082449235 0.17925349

conv2.bias f4 [20]
00000000: 2606 bbbd fdfd 5fbe c528 d5be f7d8 47be
00000010: cb99 d6be 46cb 73be 9604 a9bd 3806 67be
00000020: 6100 6fbe 8012 4dbe aedf 9ebe 4938 2abe
00000030: aaac abbd 2b0f 96be 9027 05be a3f4 78bd
00000040: 10d0 b5be 2462 13be b990 a3be 87ae 54be
-0.09132032 -0.21874233 -0.41632667 -0.1951636 -0.4191421 -0.23808011 -0.08252828 -0.22560966
-0.23339988 -0.20026588 -0.3103003 -0.16623034 -0.083825424 -0.29308447 -0.13003373 -0.06078018
-0.35510302 -0.14392906 -0.31946352 -0.20769702

fc1.weight f4 [50, 500]
00000000: 1046 843e 92d2 083d 90a2 86bd c2e8 9fbd
00000010: 4c8d 913e e926 563e cb52 f8bd 0a66 26bb
00000020: 1a39 c3bd 29ff 9bbe f858 4cbf 57dc a8be
00000030: 9677 993e 9451 9fbe 84e0 20be a0c7 d23d
00000040: afac 303e 168b 8b3e b5cd 04be 5e57 f4bd
00000050: 86e4 733f 3b4b 333f acb0 393e f4a9 53be
00000060: 71ad 62bc 1f14 3d3e 1651 8f3e 95ed 4b3e
00000070: 7b71 34be fd2d 03be d39f 873e 4b46 703e
00000080: 06e6 553c d410 95bd 51b2 b4be 86bc 6b3e
00000090: c8c3 a73e 23a4 993e e95e 9fbd 2a0f bdbd
000000a0: ffd3 fdbd 80f9 d23d a7fe 263d 097b a83d
000000b0: 446e 1c3f 53ab c9be 2151 d13d ec3f 85be
000000c0: 6654 2f3d 3821 373e 8897 80bf e598 b0bd
000000d0: c901 77be b3b5 823e c17c 4f3f 2174 29bf
000000e0: 0742 773e 31ee 903d a427 7d3e 9c34 783e
000000f0: 9939 353c c358 b43e 0d0e 423e a80e d5be
00000100: c180 f0be c9da 67bb f4f0 9a3e 9c14 6cbe
00000110: f764 ae3d 9eda c3be 1c3b 003f 1a98 833e
00000120: 60b9 7f3d 540f cdbd 06d9 e2bb 0295 e6be
00000130: b63c 57be 6d3d 38bf 0347 48be 7b40 303f
00000140: 5cd8 f2be 3aad 0dbf fcaa 733e 985b 87bd
00000150: 2496 ff3d 092b e53d 1628 823e a43e 7b3e
00000160: a5b2 713c 2b96 1b3e f0ac d03e fd80 25bd
00000170: 92a5 043e 7ee1 ff3d 9c9b 123e b010 48ba
00000180: dab4 54bb e559 cabd 8cdf 713b dbc0 d13e
00000190: dc72 ffbe a738 33be a03f 74bc cc38 093e
000001a0: 364d ec3e 3b89 be3d 0f38 d33e 2b98 113f
000001b0: 7f87 c03e 98fc 7c3e 5ee4 a13e cb0e 4ebd
000001c0: c2bd 16bd f7da d3bd 7d6e 73be d5d5 bebd
000001d0: 176f f43d 1dac 5dbd 9ead 053e 0dd8 2d3e
000001e0: e143 abbe 8eb9 e8bc be05 0ebf 7234 86be
000001f0: 8d70 d8be 8576 d9bd 3f44 c73e 7bf0 a63e
00000200: 088d 5fbd 88ad 923e 3249 843e fad7 e5bd
00000210: 63ef d1bd 642c 09be 6178 63bd 73c1 aebe
00000220: 2b2e 40be b1d6 393e fc2c db3e 973b 413e
00000230: edbb 783e 3e4a 443e 8f08 363d 3d8c d23d
00000240: 9a6d 57bd 9f6b 8e3e 676e 92be 4f45 a23c
00000250: 1a49 8ebd e178 e6be 090b aebd ca05 4cbe
00000260: d2f6 09be 3be9 7dbd 3726 e8bd e256 de3e
00000270: d78a 31bf 2691 b5be 3183 90be d8d8 02be
00000280: 48df ea3d f513 37be 4095 173d fd74 a2bd
00000290: c884 cd3d 310b 8a3e 4f7a f83d e9f8 1ebb
000002a0: 72a9 e13d 61b8 603e 8089 a2bd 7873 5e3e
000002b0: 2d89 7e3e d372 d03d a730 d33d 72d9 89bf
000002c0: 1bf4 b1be f2f2 12bf f697 c2be 0031 b33e
000002d0: 2c20 15bf 860f 49be 0908 213e 8948 743e
000002e0: 3774 673e d453 8a3e 94bb d93e e734 6f3e
000002f0: e8f2 2f3e 18bc 5bbc f504 92bc 2ed8 023d
00000300: 2b75 0f3e 6aea 263e 67bb 95bd f58f 843d
00000310: 5f64 843e b2fc b9bd 71de 273d c8c0 653e
00000320: d62d 4fbe a11b 2e3f f235 153f a87a 193e
00000330: d3da 863e acb9 443d 6c0b b13d 82e7 54be
00000340: 59dc ca3e f176 e1bd 750a ca3b e78b 8cbe
00000350: 8d2b 82bb 2c2f 1f3c fbea 093e d438 f4be
00000360: b8ed 903e 0857 24bc 73bd c9be 77d8 d0bd
00000370: b0af 543e af1d bebe 2ac0 633e 1a57 5dbe
00000380: 4355 67bd a569 43bf 675e 67bd 2e0e ba3c
00000390: 4ee9 4a3e 49d9 023e 1e1c fcbe f406 743e
000003a0: d1ff 6b3e 226f 09be 8bff a4bd 4805 943e
000003b0: 6a99 343e e681 ad3e f4bd 76bc c005 c2be
000003c0: db22 af3e 846d fd3d 752c 14be e22b 2ebe
000003d0: a161 17bd a9fa 043e ec50 4abd 6471 63be
000003e0: d07d e03c 0100 2e3e 386f b33e 9949 2f3f
000003f0: 7efc 843e a8b1 ddbe 9dae 7ebe 27ce da3c
0.25834703 0.03340394 -0.06573975 -0.07808067 0.28428113 0.2091328 -0.121251665 -0.002539041
-0.09532376 -0.3046811 -0.79823256 -0.32980606 0.2997405 -0.31116927 -0.15710646 0.10291982
0.17253374 0.27254552 -0.12969096 -0.119307265 0.95270574 0.7003667 0.18133801 -0.206703
-0.013835297 0.18464707 0.2799155 0.19914849 -0.17621414 -0.12810512 0.26489124 0.23464315
0.01305533 -0.072786 -0.35292295 0.23021135 0.32766557 0.3000804 -0.077817746 -0.09231408
-0.12393951 0.103014946 0.0407702 0.08226592 0.6110575 -0.39388523 0.10220552 -0.2602533
0.042805098 0.17883766 -1.0046244 -0.08622912 -0.24121775 0.2552925 0.81049734 -0.66192824
0.24146281 0.070766814 0.24722153 0.24238819 0.011061096 0.3522397 0.18950672 -0.41612744
-0.4697323 -0.003537821 0.30261958 -0.23054737 0.08515351 -0.3825273 0.50090194 0.25701982
0.062432647 -0.10012689 -0.006922844 -0.4503556 -0.21019253 -0.7196873 -0.19558339 0.6884839
-0.47430694 -0.5534245 0.23795694 -0.06609267 0.12479809 0.11189849 0.25421208 0.24535614
0.014752065 0.15194003 0.4075694 -0.040406216 0.12953785 0.12494181 0.14317173 -0.0007631881
-0.0032456429 -0.09880427 0.0036906926 0.4096745 -0.49892318 -0.1750208 -0.0149077475 0.13400573
0.46152657 0.093035184 0.41253707 0.56872815 0.37603375 0.24705732 0.31619543 -0.050307076
-0.03680206 -0.103444986 -0.23772617 -0.09318129 0.11935251 -0.05411922 0.13054511 0.16976948
-0.33450225 -0.028408792 -0.5547751 -0.26211888 -0.4227337 -0.10618309 0.38919255 0.32605347
-0.054577857 0.2864802 0.25837094 -0.11222835 -0.102507375 -0.1339584 -0.055534724 -0.34131965
-0.18767612 0.18148305 0.42807758 0.18870388 0.24290438 0.19168946 0.044441756 0.102806546
-0.05259476 0.27816483 -0.28599855 0.01980844 -0.06947537 -0.45014098 -0.084981985 -0.19924083
-0.1347306 -0.061990004 -0.11335414 0.4342566 -0.6935248 -0.35462302 -0.2822509 -0.12778032
0.11468369 -0.17878707 0.03700757 -0.0793247 0.10035092 0.26961663 0.121327035 -0.0024257249
0.11018647 0.21945335 -0.07936382 0.21723735 0.24857016 0.10178151 0.10312014 -1.0769484
-0.3475655 -0.57401955 -0.38006562 0.34998322 -0.58252215 -0.19634828 0.15725721 0.23855795
0.22602926 0.2701708 0.42525923 0.23360024 0.17182505 -0.013411544 -0.01782463 0.031944446
0.1400954 0.1630036 -0.07311135 0.0647277 0.25857827 -0.09081401 0.04098362 0.22436821
-0.20232329 0.6801091 0.5828544 0.14988196 0.26338825 0.048028633 0.08644757 -0.20791438
0.39621237 -0.110090144 0.0061657974 -0.27450487 -0.003972477 0.0097158365 0.13468544 -0.47699606
0.28306365 -0.0100305155 -0.3940235 -0.101975374 0.20770144 -0.37132022 0.22241274 -0.21615258
-0.056477796 -0.76333076 -0.056486513 0.02271184 0.19815561 0.127782 -0.49240202 0.23830777
0.23046805 -0.134213 -0.080565535 0.2891028 0.17636648 0.33888167 -0.015059937 -0.37895012
0.3420628 0.12374404 -0.14470084 -0.17008927 -0.03695834 0.12986244 -0.04939358 -0.22211224
0.027403742 0.16992189 0.3504579 0.68471676 0.25973886 -0.43299603 -0.24871297 0.02670963

fc1.bias f4 [50]
00000000: 318a bebc 1cd2 2cbe 6259 f5bd 568d 57bd
00000010: 6934 333e 7d4c f4bd eae5 df3d 23a8 d6bc
00000020: 35a0 423d 4cc7 c83d 7eff 7b3d aa5a 093e
00000030: 44b3 d6bd 6776 8e3c b252 95bd aa21 89bd
00000040: a11d 2cbd 4527 31bc 889c c13a 0852 4f3e
00000050: 5880 723c d797 39be 087c 803d 086b ca3d
00000060: 842a 94bc 3109 c33d bb86 f5bd e30f 68bd
00000070: 286b 3fbd d16b efbc 554b 393d 561d e9bd
00000080: f96c 1fbe 5314 1cbe ecc3 963c 4921 1bbe
00000090: ebb8 293d 1c97 503e 4abf 4ebe e279 1fbe
000000a0: 11a5 94be 8902 533d 5c76 b93d a99d 43bd
000000b0: a7e5 b03d e1a5 74bd 4288 783d da0e dcbc
000000c0: 2be0 08be d185 95bd
-0.023259254 -0.16877025 -0.11979939 -0.052625023 0.17500462 -0.119286515 0.109325245 -0.02620322
0.047516067 0.09803638 0.061522953 0.13413492 -0.10483411 0.017390443 -0.072911635 -0.06695874
-0.042020444 -0.010812585 0.0014771381 0.20246136 0.014801107 -0.18124329 0.06273657 0.09883696
-0.01808668 0.095232375 -0.119885884 -0.056655776 -0.04673305 -0.029226216 0.045237858 -0.113825485
-0.15568914 -0.15242128 0.01840397 -0.15149416 0.041436117 0.20370144 -0.20190158 -0.15573838
-0.29032186 0.05151609 0.090557784 -0.04775778 0.08637553 -0.059728507 0.06067682 -0.02686255
-0.13366763 -0.07300914

out.weight f4 [10, 50]
00000000: d0d7 aabe 0169 b33e 82d5 a23e 2f6b a5be
00000010: d228 c13c 81bb 3abf 059d afbe ceaf 593e
00000020: 97f5 8d3e 48e1 f6be d1d8 01bf 6b48 0bbe
00000030: 6bd9 833d 9aca 26bf 32e0 50bc 1f9e a83e
00000040: 1ef7 f5bd cb94 08bf 7f3c b33d 72d6 9e3e
00000050: 71c2 5abf b339 f7be ff24 f23d c47f 16be
00000060: ff55 063e 4254 0ebf 2786 8bbd 0996 083c
00000070: 4f31 793e a784 283d 10a0 703e 1741 c5be
00000080: 459f fbbe 465a 713e cb04 e4ba 80db 76be
00000090: 560c b6bc 4432 07be 2c08 48bf 4a5d 75bd
000000a0: dc74 043e d6a2 00bf 25aa 543e 21fb 91bd
000000b0: 25a7 c83d 07cc 49bd 0119 a23e 8b89 8dbd
000000c0: 0690 f03b 58be 79be 9ecc 6b3d 69aa 1bbf
000000d0: a0f2 4b3e 5a11 b2ba 2c16 2dbe 81d2 4e3e
000000e0: af3a 8d3e 5050 59be cef1 983e d303 debd
000000f0: d126 00bf c644 023e df30 c4be d991 4cbd
00000100: 90d1 063d fe02 88bf 10f2 d1ba 611a 083d
00000110: 4509 103d 89f4 d6ba af7b 153e fa89 ccbe
00000120: 8926 33bf 8f04 c03e a359 bbbe 8404 983d
00000130: 7403 183e 169b f3be ab98 a03e d16b cbbe
00000140: 9474 803e 6b19 23bf 5e44 3fbe eec2 61be
00000150: 8978 1bbe 5254 72bd e8af 92bd c18e c93d
00000160: e0b9 30bf deaa 52bf dc32 a4bc 8dbe c73d
00000170: 4ec6 943c 4f88 483d c52e d3be 2025 1cbc
00000180: 0126 b1be fd98 203d f269 113e 00fa 563f
00000190: ce62 b33d 4a3b 2abe b91b ae3e 7288 b4be
000001a0: 1168 f53d b415 893d ebd8 343e f672 9e3e
000001b0: 5679 8a3e 99e0 8b3e 88c2 93bd 3b95 2d3e
000001c0: 9071 4fbc 4369 19bf 6008 37bd 20c7 13bf
000001d0: ae7d 793d a91e 09be 8c08 b93d 55a0 33bf
000001e0: 1fee 0abe 529f 323e 46a3 20bf e326 e9be
000001f0: 11c3 953e 4fed 10bf 6651 913e b726 283e
00000200: 956e 33bf 2760 833e 248d 0e3e a0ed 6ebe
00000210: 90e9 863e 3f8d 653e 7fb7 6abe ad67 1cbf
00000220: 43f2 f3bd 4e4d 183e 6877 95be eb72 403d
00000230: e2f4 953e 6908 ad3e ce3d b2be 03f6 a53d
00000240: cd05 9abe d7ac 153d a03b 96be 3d50 4fbe
00000250: 4e4c cd3d 8c97 55bf c59e 23bf 5f1d 833e
00000260: 6411 10bf d5d0 fe3d d1ae fcbe d44a 83bf
00000270: 0522 433e 7f14 683e de8c 7dbe 10b7 e2be
00000280: d255 823e a293 183e e07f 11bf 5b22 003e
00000290: ded9 b9bd 0c05 df3c 96e8 4a3d 65cc c33d
000002a0: b781 113d c5c9 0cbf a464 ecbe a2f3 f9bb
000002b0: aed1 a93d 1b91 68bf 84bf 15bd f7f5 4bbe
000002c0: e030 efbd 888f f1bc c162 2b3e 9cfd b83c
000002d0: 6461 adbe 73bb 21be 2b69 97be 216a 1fbe
000002e0: ccc0 05bf 8e06 26bf 548d f33d fe7a 9a3e
000002f0: b57f c33e 70ce 9f3e de3a c23d 68e1 b5be
00000300: 54ee 9a3e 0974 98bd 44ad 98be f3e1 c9bd
00000310: 01d9 523d 706e 1fbf 7acd f83d 02f1 91bd
00000320: 1711 133e 9961 5dbe ac5e 8a3e 2650 d13d
00000330: 414a a63e a49e ab3e 6271 36bf 2983 78be
00000340: 399e 16be 6f17 9abe e550 8a3d 2d00 c73b
00000350: 38ff 133e 3c9b 77be dcc9 99ba 4d0d fd3d
00000360: 1fa2 47bc 3b6b 83be e70f 9ebc e384 03bf
00000370: e50d 2dbe f226 53bd 093a 02be 02bd a73e
00000380: 43a9 10be c12c 913d d8ce ab3e 4d1f 18bf
00000390: 7baf 3ebf d6e9 c6be 3feb 8fbe bf95 873e
000003a0: 6c15 193e d86e 82bd 6581 843e b0d0 373e
000003b0: d5b1 84bf 4748 4ebc 9ffe a4be 478b 0ebf
000003c0: b06a 8c3d 5a06 23bf 5f1b 283e d8eb 7bbd
000003d0: 50da 623e e202 83bd 0e1f c9be 4c06 bd3e
000003e0: f098 813d 67cd 513e 44b5 0a3e 01f0 a63e
000003f0: 995a f1bd 1ee1 6c3e 9b4e d63d 6b8f 2fbf
-0.33367777 0.3504105 0.3180352 -0.32308337 0.023579035 -0.7294236 -0.34299484 0.2125847
0.27726433 -0.4821875 -0.5072146 -0.13601844 0.064379536 -0.65152895 -0.012748765 0.32933137
-0.120100245 -0.5335204 0.08751773 0.31022984 -0.85452944 -0.4828621 0.11823463 -0.14697176
0.13118742 -0.5559732 -0.06812697 0.008336552 0.24335216 0.041142132 0.23498559 -0.38526222
-0.4914495 0.23569593 -0.0017396448 -0.2410717 -0.02222268 -0.13202769 -0.7813747 -0.05990342
0.12935203 -0.5024847 0.2076803 -0.07127977 0.09797505 -0.04926684 0.316597 -0.06911
0.0073413877 -0.24389017 0.057568185 -0.608069 0.19916773 -0.0013585493 -0.16902989 0.20197488
0.27583835 -0.21222043 0.29871982 -0.10840573 -0.5005923 0.12721547 -0.38318536 -0.04994378
0.032914698 -1.0625913 -0.0016017575 0.033228282 0.03516509 -0.0016399781 0.14597963 -0.39949018
-0.69980675 0.37503478 -0.36591825 0.07422736 0.14845067 -0.4757926 0.31366476 -0.39730695
0.25088942 -0.6371066 -0.18678424 -0.22047016 -0.151827 -0.059162445 -0.07162458 0.09841681
-0.6903362 -0.8229197 -0.020043783 0.097531416 0.018160965 0.04895812 -0.4124662 -0.009530336
-0.34599307 0.0392084 0.14200571 0.8397522 0.0875908 -0.1662418 0.34005526 -0.3526035
0.1198274 0.06693593 0.17660873 0.30947083 0.27045697 0.27319792 -0.07214838 0.16951458
-0.012661353 -0.5992624 -0.04468572 -0.57725716 0.060910873 -0.13390602 0.09034833 -0.7016652
-0.13567398 0.17443588 -0.62749135 -0.4553748 0.29250386 -0.56612104 0.28382415 0.16421019
-0.7009061 0.25659296 0.13921028 -0.23332834 0.2635007 0.22417162 -0.2292156 -0.61095697
-0.11911442 0.1487324 -0.29192662 0.046984594 0.29288393 0.3379548 -0.34812778 0.08103564
-0.3008255 0.036541786 -0.29342365 -0.20245452 0.100243196 -0.8343437 -0.6391414 0.25608346
-0.56276536 0.12442175 -0.49352124 -1.0257211 0.19055946 0.22664069 -0.24760768 -0.4428029
0.254561 0.14900067 -0.56835747 0.12513106 -0.09074758 0.027224086 0.049538217 0.095604695
0.035524096 -0.54995376 -0.46170533 -0.0076279202 0.08291946 -0.90846413 -0.036559597 -0.19918047
-0.11679244 -0.029487386 0.1673689 0.022581868 -0.33863366 -0.15794162 -0.29572424 -0.15567829
-0.5224731 -0.6485375 0.118921906 0.3017196 0.3818337 0.31212187 0.09483884 -0.35523534
0.30259955 -0.07444007 -0.2981969 -0.098575495 0.051476482 -0.6227789 0.121485665 -0.07126047
0.14361988 -0.21619262 0.27025354 0.10220365 0.32478526 0.3351947 -0.7126676 -0.24268784
-0.14708795 -0.30096003 0.06753711 0.006073019 0.14452827 -0.24180311 -0.0011733132 0.123560525
-0.012184649 -0.25667748 -0.019294692 -0.51374644 -0.16899832 -0.051550813 -0.12717451 0.3276139
-0.14127068 0.07088614 0.33556247 -0.5942276 -0.7448651 -0.38850278 -0.28109166 0.26481435
0.14949578 -0.06368798 0.2587997 0.17950702 -1.036677 -0.012590474 -0.3222551 -0.5568127
0.068562865 -0.63681567 0.16416691 -0.061504215 0.22153592 -0.06397034 -0.39281505 0.36918867
0.06327999 0.20488511 0.1354571 0.32604983 -0.11784858 0.2313275 0.104642116 -0.68578213

out.bias f4 [10]
00000000: c18c e33c a7fc dfbd cc73 493e 44ef 9d3e
00000010: 3ea1 413d 79ed 9abd ea87 bbbe 5e0d 023e
00000020: dc51 773e 5d7a bdbc
0.027777078 -0.109368615 0.19673079 0.30846608 0.047272913 -0.075648256 -0.36627132 0.12700412
0.2415232 -0.023129636
